ckpt/bnn.pt (torch, 320455 bytes, 4 tensors)

weight f4 [100, 784]
0.0020871973 0.021858357 0.005768997 -0.01855298 -0.008668423 0.030617807 -0.032038815 -0.00808512
0.02931613 -0.037122507 -0.02740589 0.019181248 0.01284761 -0.010476844 0.0032918532 -0.018204033
-0.00012214408 0.022810338 -0.0012215103 0.022365533 -0.0015170225 0.018143276 0.002958556 0.014090637
0.02467888 0.038217522 -0.012439506 0.01117734 0.010333213 0.013981976 0.016481964 -0.011143032
0.012640235 -0.016417319 -0.024330886 -0.0057382733 -0.00042171398 -0.024838746 -0.0041054287 -0.01203296
-0.023324553 -0.00385111 0.027784904 0.03310163 -0.03372111 -0.036802273 -0.025964174 0.022741567
0.025979057 -0.022390328 0.013964419 0.020026723 0.007897597 -0.02523625 0.018453289 -0.031534974
-0.0034662404 -0.0101385005 0.02645477 -0.033957276 -0.015903616 -0.0025074563 -0.005880145 -0.01796156
0.00057799375 -0.017387211 0.012933157 0.041550715 0.0010807471 0.02373907 -0.012503987 -0.00839326
-0.038485385 0.026066732 0.021012887 -0.023533994 -0.04399379 0.0032574434 0.018364072 -0.013028479
-0.02709112 -0.0030324424 -0.011465229 -0.0012172195 0.021997232 0.011079998 0.0028073965 0.0026458942
-0.018196644 0.012837599 -0.0014894904 -0.028774498 0.01176252 -0.021843813 -0.011472059 0.008835076
-0.034288373 -0.014560612 0.0156693 -0.022104368 0.005479891 -0.0052718725 -0.019115748 0.012277613
-0.009752826 0.014355662 0.028714312 0.005544429 0.024458503 0.0215348 -0.0013083806 -0.00033715047
0.014813963 -0.014639266 0.0026089104 0.008405336 0.018188152 -0.002922474 -0.0008495282 0.020149242
0.023787238 0.0055440404 -0.044331074 -0.016725032 -0.024373101 -0.03338111 0.027627474 -0.017155472
-0.028605947 0.00023685372 -0.0147026265 -0.020772412 -0.029722858 -0.010106985 0.002839591 -0.0067846533
-0.03647301 -0.0055402424 0.034834247 -0.010238263 0.00027030695 -0.0069245743 0.003444255 0.018978488
0.020421902 -0.018439645 -0.019942656 -0.019508695 0.007908482 -0.038857955 -0.026268037 -0.0038627468
-0.0064861965 0.005482865 -0.052463 0.004891166 -0.05679812 -0.03925178 0.018460412 -0.004501436
0.020278828 0.014462722 0.012636889 -0.0320198 -0.03350474 0.0062998924 0.015623767 -0.04039422
0.023767106 0.023540162 -0.015556943 -0.0002838836 -0.0059848954 0.012204498 0.0029721544 -0.03671024
-0.04357162 0.0035831586 -0.031291004 -0.005752115 0.01729175 -0.03734642 0.00195875 -0.024985224
-0.027246492 -0.004585073 0.028526153 0.04082379 -0.024934512 -0.014192592 -0.014392854 -0.036687914
-0.00045688456 -0.029331192 -0.008983748 -0.012605774 0.02553811 -6.119904e-05 0.019198583 -0.017175002
-0.016875949 0.015151181 -0.00446279 -0.022998687 0.021460973 0.001894622 0.018994793 0.030465595
-0.007241164 -0.012189077 -0.016414322 -0.011570128 -0.024044268 -0.033617575 -0.026292711 0.003593315
0.008527737 -0.0113567365 0.00034708844 -0.018455124 -0.009620604 -0.02969314 0.0042335335 -0.01814415
0.015495481 0.031845964 0.024777161 -0.027180018 0.036679726 0.030742083 0.006161156 -0.011538422
-0.01172083 0.0036655047 0.0071772723 -0.027062176 -0.0138984835 0.04899805 -0.013579869 -0.0018599378
0.011707661 -0.021436179 0.036911897 0.010599928 0.012999293 -0.030082433 -0.017276406 0.019433754
-0.01819146 0.0037965141 -0.013709391 0.022041246 -0.010924352 -0.016681055 0.0061506345 0.037677128
00000000: 5cc9 083b 4c10 b33c db09 bd3b 6bfc 97bc
00000010: 0006 0ebc 32d2 fa3c 223b 03bd 7377 04bc
00000020: 6128 f03c c50d 18bd 5182 e0bc fe21 9d3c
00000030: c87e 523c 12a7 2bbc 22bc 573b a020 95bc
00000040: cd13 00b9 bfdc ba3c 161b a0ba ec37 b73c
00000050: d4d6 c6ba 35a1 943c 55e4 413b 6adc 663c
00000060: 5d2b ca3c fa89 1c3d 12cf 4bbc 2921 373c
00000070: a34c 293c a814 653c 2f05 873c 4491 36bc
00000080: fd18 4f3c 9d7d 86bc 9151 c7bc 2008 bcbb
00000090: 7e19 ddb9 a07a cbbc d586 86bb e425 45bc
000000a0: 2213 bfbc e862 7cbb 2b9d e33c 9395 073d
000000b0: 261f 0abd fbbd 16bd d2b2 d4bc 864c ba3c
000000c0: 08d2 d43c ec6b b7bc 05cb 643c 150f a43c
000000d0: ec64 013c 41bc cebc 5a2b 973c d12a 01bd
000000e0: dd29 63bb f41b 26bc acb7 d83c c916 0bbd
000000f0: 4d48 82bc 2354 24bb 3bae c0bb 1f24 93bc
00000100: 8184 173a a06f 8ebc 98e5 533c 1531 2a3d
00000110: dba7 8d3a 7078 c23c 86dd 4cbc e283 09bc
00000120: daa2 1dbd e689 d53c 3823 ac3c 5dca c0bc
00000130: d532 34bd d57a 553b 4070 963c 6775 55bc
00000140: 32ee ddbc f1bb 46bb a8d8 3bbc 1c8b 9fba
00000150: 8a33 b43c e188 353c 4cfc 373b bd66 2d3b
00000160: 2111 95bc cb54 523c 013b c3ba 7fb8 ebbc
00000170: 96b7 403c ccf1 b2bc 4ef5 3bbc ffc0 103c
00000180: f771 0cbd a28f 6ebc e75c 803c 3814 b5bc
00000190: a890 b33b acbf acbb a198 9cbc 0b28 493c
000001a0: 51ca 1fbc 0334 6b3c 473a eb3c 0bae b53b
000001b0: 335d c83c c069 b03c f87d abba 92c3 b0b9
000001c0: 44b6 723c 88d9 6fbc 41fa 2a3b 89b6 093c
000001d0: 52ff 943c fa86 3fbb dfb2 5eba 0610 a53c
000001e0: 74dd c23c c8aa b53b 8094 35bd ef02 89bc
000001f0: 19aa c7bc a1ba 08bd 0353 e23c a289 8cbc
00000200: 0557 eabc f05b 7839 49e3 70bc e82a aabc
00000210: 5a7d f3bc c597 25bc 6e18 3a3b cc51 debb
00000220: b964 15bd ec8a b5bb 5bae 0e3d 63be 27bc
00000230: fcb7 8d39 8ae7 e2bb 03b9 613b c678 9b3c
00000240: d54b a73c bd0e 97bc c85e a3bc b3d0 9fbc
00000250: 9492 013c 8529 1fbd 1130 d7bc 2326 7dbb
00000260: 298a d4bb 9ba9 b33b 71e3 56bd 1346 a03b
00000270: 25a5 68bd 79c6 20bd 4a3a 973c c880 93bb
00000280: c91f a63c 0ef5 6c3c f40a 4f3c 3227 03bd
00000290: 443c 09bd 546f ce3b d4fa 7f3c 6974 25bd
000002a0: 3cb3 c23c 4cd7 c03c 8ce2 7ebc 36d6 94b9
000002b0: f11c c4bb 60f5 473c 7ac8 423b 7a5d 16bd
000002c0: 2878 32bd 6dd3 6a3b ff2a 00bd 3d7c bcbb
000002d0: 6ea7 8d3c 8ff8 18bd 5f5e 003b d0ad ccbc
000002e0: 0934 dfbc 613e 96bb aeaf e93c d936 273d
000002f0: 7643 ccbc 0c88 68bc 01d0 6bbc 1146 16bd
00000300: 028a efb9 f847 f0bc 9230 13bc 7388 4ebc
00000310: 4c35 d13c fc57 80b8 5946 9d3c 97b2 8cbc
00000320: 6e3f 8abc a93c 783c 993c 92bb be67 bcbc
00000330: ecce af3c f754 f83a f89a 9b3c fc92 f93c
00000340: 4947 edbb b2b4 47bc 5477 86bc a290 3dbc
00000350: 7cf8 c4bc 95b2 09bd d063 d7bc d27d 6b3b
00000360: ecb7 0b3c 9b11 3abc 6cf9 b539 332f 97bc
00000370: bd9f 1dbc 073f f3bc 74b9 8a3b 0aa3 94bc
00000380: c2e0 7d3c ea70 023d 79f9 ca3c a1a8 debc
00000390: 7b3d 163d d2d6 fb3c 86e3 c93b a60b 3dbc
000003a0: b908 40bc f738 703b 532f eb3b 7fb1 ddbc
000003b0: 77b6 63bc 2eb2 483d 197e 5ebc 28c9 f3ba
000003c0: 7dd1 3f3c ed9a afbc ee30 173d 52ab 2d3c
000003d0: fdfa 543c 6f6f f6bc 4087 8dbc 8933 9f3c
000003e0: 4206 95bc f0ce 783b 5a9d 60bc d88f b43c
000003f0: 0efc 32bc b5a6 88bc 438b c93b 5553 1a3d

bias f4 [100]
0.023983864 -0.017406777 -0.032116126 0.002486283 0.0058281054 0.00978521 -0.0007494733 0.014021329
-0.016998865 0.0031864662 0.01576404 -0.014195244 -0.0101799425 0.0036014135 0.020328626 -0.036735114
-0.023944875 0.026425391 -0.025415549 0.0228755 0.02033676 0.011454259 0.013970778 0.023308897
0.013767038 0.004495752 0.027822195 0.0060073906 0.023856342 0.0201591 0.046026867 -0.017827531
0.0075314143 0.005083892 0.010576234 -0.013673947 -0.011125473 0.0040407972 -0.008442373 0.0059784804
0.028511101 -0.04325219 -0.0050336244 -0.029365152 -0.014653563 0.0032349369 -0.015402588 0.02736072
0.037664328 -0.0033352468 0.023966113 0.00040785747 -0.009843561 -0.0076357336 0.051858995 -0.011357811
-0.0176302 -0.04871675 -0.008899109 -0.033581708 0.023101978 0.0061717583 0.019927222 0.033884615
0.013371417 0.013634173 0.015729317 -0.0175321 0.02365081 -0.011761649 0.0057496126 0.031394314
0.017977763 0.008809753 -0.014610144 -0.006550514 0.029633207 -0.026062991 0.04460893 0.006443354
-0.026751628 -0.023509774 -0.0038092476 -0.011167902 -0.014084803 0.024462841 -0.0275834 -0.011271323
0.022519765 0.015647192 -0.023618972 -0.029740008 0.014601954 0.013711781 0.0055128154 -0.02707608
0.018058142 0.022663571 0.024169995 0.02696054
00000000: cf79 c43c a898 8ebc 338c 03bd e8f0 223b
00000010: b1f9 be3b 2552 203c 4d78 44ba b7b9 653c
00000020: 3441 8bbc 08d4 503b 9723 813c 2b93 68bc
00000030: c6c9 26bc b105 6c3b 3888 a63c 8f77 16bd
00000040: 0b28 c4bc 107a d83c 4534 d0bc 6765 bb3c
00000050: 4799 a63c a5aa 3b3c b1e5 643c 4df2 be3c
00000060: 248f 613c 1a51 933b 5feb e33c a5d9 c43b
00000070: 606e c33c b224 a53c ab86 3c3d 0b0b 92bc
00000080: 15ca f63b c796 a63b f147 2d3c b108 60bc
00000090: 9e47 36bc aa68 843b e151 0abc 21e7 c33b
000000a0: 1d90 e93c 3529 31bd 1af1 a4bb 308f f0bc
000000b0: 7f15 70bc 3c01 543b 235b 7cbc 9723 e03c
000000c0: e945 1a3d 2894 5abb 9554 c43c b4d5 d539
000000d0: e346 21bc 2d35 fabb 196a 543d 1d16 3abc
000000e0: 366d 90bc 378b 47bd 92cd 11bc f98c 09bd
000000f0: 5c40 bd3c 763c ca3b 6a3e a33c 98ca 0a3d
00000100: ca13 5b3c de61 5f3c c5da 803c 7b9f 8fbc
00000110: 58bf c13c eeb3 40bc 3f67 bc3b 5397 003d
00000120: 1a46 933c c856 103c 635f 6fbc b2a5 d6bb
00000130: 57c1 f23c 0e82 d5bc dab7 363d c522 d33b
00000140: 3b26 dbbc 9297 c0bc 92a4 79bb 93f9 36bc
00000150: f2c3 66bc 4c66 c83c 95f6 e1bc 5bab 38bc
00000160: 5f7b b83c 8a2e 803c 937c c1bc 51a1 f3bc
00000170: 093d 6f3c 61a7 603c d9a4 b43b a8ce ddbc
00000180: abee 933c f4a8 b93c 2700 c63c 5adc dc3c

weight f4 [10, 100]
-0.050453406 -0.029306075 -0.01496514 0.03614262 0.1488491 -0.124237545 0.06846424 0.0619372
0.042133443 0.039212253 -0.06503669 -0.09242682 -0.080868684 -0.13075763 0.12885529 0.06497412
-0.082611375 0.041444235 0.06199061 -0.01644687 -0.03319305 -0.04874762 0.13167161 -0.07587162
0.07948314 -0.01737572 -0.062396824 0.06960359 -0.1041217 0.003262213 -0.1053734 -0.0130804675
0.0038242748 0.08111152 -0.05079662 -0.021347677 0.010280365 0.0047244164 -0.07569548 -0.018301565
-0.06772906 -0.05285776 -0.018367296 -0.10582333 -0.09110571 -0.10306502 -0.037680957 -0.0119651165
0.054035734 0.08009193 -0.062620394 -0.045481283 -0.013432512 0.028444828 -0.020735303 -0.11589914
-0.10081747 -0.045827113 -0.09230055 -0.028656969 0.021962218 -0.055014048 0.026587147 -0.1488603
0.12143581 0.07937176 -0.024381083 0.090366 0.16328774 -0.056016434 -0.086220875 -0.1119234
-0.10619453 -0.08927083 0.035335876 0.037487753 0.035445906 0.032515932 -0.097142145 -0.041512113
0.024912808 -0.112178564 0.006900996 0.010758327 0.07482244 0.026547575 -0.08681518 -0.01174053
-0.13340256 0.105539486 0.10493161 0.05531357 0.036917344 0.09101031 -0.0409785 0.025932772
-0.078455955 -0.08679565 0.07117769 0.040794246 -0.00023611562 0.08801944 -0.045050535 0.07160919
-0.1835191 -0.020740563 -0.0049042283 -0.042736277 0.05849936 0.043226957 0.019458901 -0.11224062
0.025352217 0.12353252 -0.03244901 0.021263208 -0.0005910783 0.079257675 0.07757476 -0.09533829
-0.041878656 -0.081902236 -0.112898715 0.0059536896 -0.03935091 0.11907599 -0.09726209 -0.09906316
-0.02491753 -0.0670572 0.05703622 -0.09300662 0.05146156 -0.11007932 -0.08059702 0.033996627
0.03392658 0.02725273 0.014386775 -0.062122118 0.05684804 -0.021399153 -0.022966858 -0.0027555842
0.014483087 -0.03805067 0.035123743 0.062349264 -0.1249297 -0.033522055 -0.071787156 -0.024794033
0.039187837 -0.10919537 0.1509341 -0.04250564 0.009668371 0.06692026 0.05575864 0.015151209
-0.09387372 0.09381039 -0.063717924 0.15421012 -0.1189471 -0.04740998 0.08125432 -0.0023154349
-0.07103557 0.017690577 -0.018573979 0.098663084 0.13764581 0.10654166 0.112438165 0.079686545
-0.0840041 0.08768499 0.001975062 0.006445385 0.049633205 -0.03682621 -0.098689586 0.052627515
-0.024183521 -0.008249207 0.0034857912 0.038467582 -0.039870817 -0.013960713 -0.03145441 -0.0041143307
0.07178979 -0.16602086 0.05475707 0.06362892 0.08116819 -0.06125892 0.03991721 0.09379095
-0.034217764 0.014094556 -0.11244546 -0.079754725 0.006575581 -0.096401155 -0.013849244 -0.04022372
0.06518302 -0.031991255 -0.075920336 -0.061644774 -0.075379446 0.123957664 0.033341803 -0.003627443
0.096700385 -0.10246603 -0.09089444 0.059591632 -0.03132588 0.107814 -0.091401115 -0.035761718
-0.058150586 0.09232867 -0.103926174 0.086392276 0.06321888 0.02516555 0.06911772 0.027988642
-0.0025498858 -0.083732374 -0.07745566 -0.063120775 -0.07696088 0.08870895 0.03193153 -0.03062659
0.073693134 -0.0072562965 -0.015346015 0.12751575 0.095927596 0.0679836 -0.023002118 0.037882317
-0.094986334 -0.03413027 -0.019163651 0.06328578 -0.054149356 0.12199649 -0.052833088 -0.10047029
00000000: 3ba8 4ebd 4b13 f0bc 5930 75bc 490a 143d
00000010: e66b 183e 4170 febd fb36 8c3d ddb1 7d3d
00000020: 1e94 2c3d 079d 203d f531 85bd 464a bdbd
00000030: 7b9e a5bd 54e5 05be a4f2 033e 2711 853d
00000040: 2730 a9bd 6ec1 293d dee9 7d3d 96bb 86bc
00000050: 70f5 07bd 96ab 47bd ecd4 063e 9462 9bbd
00000060: 0ec8 a23d 8757 8ebc d093 7fbd 548c 8e3d
00000070: c23d d5bd daca 553b 02ce d7bd 754f 56bc
00000080: afa0 7a3b cc1d a63d 1e10 50bd 53e1 aebc
00000090: fa6e 283c 47cf 9a3b 3b06 9bbd 2aed 95bc
000000a0: 89b5 8abd 6181 58bd 0377 96bc e7b9 d8bd
000000b0: a195 babd c113 d3bd 5957 1abd 5609 44bc
000000c0: 9354 5d3d 3d07 a43d 1f3f 80bd 954a 3abd
000000d0: 0a14 5cbc 2105 e93c 15dd a9bc 875c edbd
000000e0: 6479 cebd 36b5 3bbd 1208 bdbd 05c2 eabc
000000f0: 1cea b33c 6956 61bd 4acd d93c d66e 18be
00000100: 57b3 f83d a98d a23d d6ba c7bc cf11 b93d
00000110: e734 273e 7d71 65bd 9294 b0bd 1838 e5bd
00000120: 857c d9bd a0d3 b6bd 5abc 103d c28c 193d
00000130: ba2f 113d 6d2f 053d 76f2 c6bd 9b08 2abd
00000140: f215 cc3c e0bd e5bd c021 e23b b243 303c
00000150: 823c 993d 4d7a d93c 28cc b1bd 5a5b 40bc
00000160: ae9a 08be 1625 d83d 62e6 d63d 7b90 623d
00000170: a436 173d 9d63 ba3d 12d9 27bd f770 d43c
00000180: 84ad a0bd ebc1 b1bd 9cc5 913d de17 273d
00000190: ce95 77b9 8943 b43d e986 38bd d7a7 923d
000001a0: 6eec 3bbe 1de8 a9bc a6b3 a0bb 3c0c 2fbd
000001b0: 069d 6f3d c00e 313d 4668 9f3c 69de e5bd
000001c0: 74af cf3c 9efe fc3d 41e9 04bd 2e30 ae3c
000001d0: 98f2 1aba d951 a23d 84df 9e3d b940 c3bd
000001e0: f488 2bbd 5cbc a7bd 7137 e7bd 2b17 c33b
000001f0: 6b2e 21bd 1dde f33d 5931 c7bd a0e1 cabd
00000200: d91f ccbc 4955 89bd d09e 693d 417a bebd
00000210: 5bc9 523d 4471 e1bd 0d10 a5bd 0c40 0b3d
00000220: 99f6 0a3d 1e41 df3c 82b6 6b3c c373 7ebd
00000230: 7ed9 683d 474d afbc fe24 bcbc 0897 34bb
00000240: 784a 6d3c 05db 1bbd eadd 0f3d f161 7f3d
00000250: 24db ffbd 6c4e 09bd 2505 93bd db1c cbbc
00000260: 6d83 203d d2a1 dfbd 788e 1a3e 651a 2ebd
00000270: 1668 1e3c 7d0d 893d 2c63 643d c73c 783c
00000280: dd40 c0bd a91f c03d 8b7e 82bd 42e9 1d3e
00000290: 8a9a f3bd f830 42bd aa68 a63d 8dbe 17bb
000002a0: 197b 91bd d4eb 903c 7528 98bc df0f ca3d
000002b0: 06f3 0c3e 8432 da3d fb45 e63d b332 a33d
000002c0: 570a acbd 3094 b33d 0b70 013b cf33 d33b
000002d0: 304c 4b3d 14d7 16bd c41d cabd f38f 573d
000002e0: 851c c6bc af27 07bc df71 643b 2f90 1d3d
000002f0: 954f 23bd 79bb 64bc 57d6 00bd 82d1 86bb
00000300: 8706 933d 5f01 2abe f348 603d e14f 823d
00000310: 823b a63d a2ea 7abd 3a80 233d 7815 c03d
00000320: ed27 0cbd daec 663c ce49 e6bd 7256 a3bd
00000330: f977 d73b f86d c5bd f1e7 62bc a1c1 24bd
00000340: ad7e 853d 4309 03bd 1f7c 9bbd 3b7f 7cbd
00000350: 8a60 9abd 84dd fd3d 6a91 083d 65ba 6dbb
00000360: da0a c63d b6d9 d1bd dd26 babd 5b16 743d
00000370: 914f 00bd 96cd dc3d 8230 bbbd e17a 12bd
00000380: 4f2f 6ebd d016 bd3d 3fd7 d4bd 6fee b03d
00000390: e678 813d fc27 ce3c 978d 8d3d 7048 e53c
000003a0: fc1b 27bb e17b abbd 13a1 9ebd 7745 81bd
000003b0: aa9d 9dbd 0aad b53d a3ca 023d 9de4 fabc
000003c0: 6dec 963d 3ac6 edbb da6d 7bbc 7d93 023e
000003d0: b075 c43d fc3a 8b3d f06e bcbc 7d2a 1b3d
000003e0: 3288 c2bd 2fcc 0bbd 17fd 9cbc fa9b 813d
000003f0: b7cb 5dbd 4cd9 f93d 8267 58bd 5ec3 cdbd

bias f4 [10]
0.0028937336 -0.051446248 0.010994394 0.011885929 -0.08088541 -0.04790174 0.08339398 -0.010132835
-0.009536617 -0.016306393
00000000: cba4 3d3b 4db9 52bd d521 343c 33bd 423c
00000010: 40a7 a5bd 9d34 44bd 77ca aa3d 3104 26bc
00000020: 793f 1cbc fc94 85bc
