ckpt/mnist/sgd/weights.pt (torch, 319519 bytes, 4 tensors)

fc1.weight f4 [100, 784]
0.027714215 0.0026213164 -0.029025055 0.0006568039 0.031456403 -0.020436686 0.009030869 -0.016833516
-0.015670173 0.0032120491 -0.0125856325 -0.012472916 -0.008306048 -0.00842265 0.0016574926 0.0055628284
0.016170906 0.0151518 -0.00809069 0.028972937 0.025792692 0.025775965 -0.023187801 0.028801084
0.0095133865 -0.018242212 -0.033314202 -0.004799525 0.030733544 0.030724296 -0.024362464 -0.033933494
0.03263387 -0.00053168245 0.016863396 0.015697125 -0.027242092 -0.0014597762 0.006711997 0.00021484136
-0.0029737633 0.032303654 -0.033020224 -0.018241916 0.0050519453 -0.009124889 -0.016703827 0.0065339543
-0.032088146 -0.033741694 -0.013281242 -0.0070619383 0.022070024 -0.029407453 0.013222277 0.03426092
-0.018560462 -0.00956349 -0.005491803 -0.01053567 -0.028617812 -0.03256858 -0.005622494 0.021624738
-0.00093596766 0.030268367 0.017550178 -0.001407198 0.017524645 -0.03397649 -0.033896424 0.0013321269
-0.01818353 0.020283224 -0.03070145 -0.027851306 -0.01096588 -0.0067779333 -0.020679979 -0.03562483
0.00020129567 0.021192929 -0.008829339 0.0031734393 0.01068506 -0.0022450339 0.020062983 -0.01642746
0.033182554 -0.016675746 0.030155117 -0.003309537 0.02928737 -0.023600094 0.02475524 0.0014195543
0.0126321055 -0.027922861 -0.020622276 0.03221421 -0.03648602 0.01474423 0.015007258 0.00019888651
-0.014238759 -0.028414367 0.017306095 -0.020044932 0.03360302 -0.02962311 0.02586672 -0.019453378
0.011219361 -0.035698052 -0.033464383 -0.010471165 -0.0048223613 -0.017062936 0.00063604594 0.030828638
-0.036008343 -0.014536723 0.02923065 -0.0051244516 0.020946957 0.019624723 0.024148619 -0.004804893
-0.031292964 -0.030144015 0.014247726 0.018361133 -0.009667484 0.004354939 0.015955482 -0.010685887
0.009082324 -0.023035606 -0.0069580106 0.0016462347 -0.029533656 -0.02271155 -0.002058861 0.032239854
0.013038396 0.010574553 0.007240139 -0.015057839 -0.03719657 -0.020726113 -0.021516273 -0.020867757
-0.011966893 0.007468507 -0.024936501 0.009295633 -0.023497006 0.025443459 0.0012562523 0.019072684
0.01793233 -0.0024466303 -0.00093278027 0.024989378 -0.011130634 -0.02354989 0.02201715 0.01651958
0.003777872 -0.02902133 0.010483312 0.030650398 -0.010886428 -0.003182918 -0.015658788 0.023769805
-0.0043742773 -0.02452172 0.0011605023 0.0030918792 -0.02317681 0.013451178 -0.028214443 0.0258658
-0.027642366 0.016557693 -0.01221176 -0.01580257 0.02547163 -0.025898585 0.007750639 -0.015044258
0.033205725 0.018520406 0.034381676 0.0039990353 -0.0036395863 -0.00034735622 -0.025787164 0.0022078177
0.015656766 -0.019891407 0.007384296 -0.011064521 -0.00060597406 0.0052646142 0.02432588 0.009146353
0.017550763 0.0092507405 0.006917712 0.0011653817 -0.029490007 0.010424357 0.008740548 0.011517618
-0.012847779 0.009426458 -0.028783616 -0.018482026 0.013947632 -0.030677345 -0.015313658 0.023607064
0.0069362405 0.027157472 0.033424724 0.024803033 0.009467912 -0.025193825 -0.017445747 -0.029059514
0.0041923746 0.004662692 -0.03398869 0.030449443 0.0044240975 0.027777435 0.022383582 -0.013466408
0.036084607 -0.017691711 -0.0020299326 0.024539793 0.004487033 -0.033534594 -0.010911114 0.0350769
0.009945662 -0.02561471 -0.024936398 0.002960864 -0.03238609 0.028379412 0.02480899 0.023053009
00000000: ec08 e33c 64ca 2b3b f4c5 edbc 5d2d 2c3a
00000010: 6ed8 003d d66a a7bc 36f6 133c 71e6 89bc
00000020: bc5e 80bc 3e81 523b f833 4ebc 345b 4cbc
00000030: 1716 08bc 28ff 09bc 3940 d93a 6348 b63b
00000040: d978 843c 413f 783c d08e 04bc a758 ed3c
00000050: 324b d33c 1e28 d33c 58f4 bdbc 40f0 eb3c
00000060: 09de 1b3c b170 95bc 7974 08bd 5545 9dbb
00000070: eac4 fb3c 85b1 fb3c ca93 c7bc d9fd 0abd
00000080: 18ab 053d 9b60 0bba 1b25 8a3c 4297 803c
00000090: cf2a dfbc f655 bfba 50f0 db3b 0a47 6139
000000a0: 78e3 42bb d650 043d 3740 07bd 1270 95bc
000000b0: ca8a a53b 8f80 15bc 77d6 88bc c81a d63b
000000c0: dc6e 03bd bb34 0abd 9199 59bc d567 e7bb
000000d0: 32cc b43c e6e7 f0bc 40a2 583c 2e55 0c3d
000000e0: 1c0c 98bc 2fb0 1cbc 95f4 b3bb ce9d 2cbc
000000f0: e76f eabc a266 05bd e63c b8bb 5d26 b13c
00000100: ba5b 75ba 5ef5 f73c 64c5 8f3c bb71 b8ba
00000110: d88f 8f3c ef2a 0bbd fad6 0abd c39a ae3a
00000120: a0f5 94bc 0129 a63c 9b81 fbbc 6c28 e4bc
00000130: 3caa 33bc 6d19 debb 0f69 a9bc 57eb 11bd
00000140: e512 5339 cb9c ad3c efa8 10bc 7af9 4f3b
00000150: 6410 2f3c 6b21 13bb 205b a43c e192 86bc
00000160: 6eea 073d 939b 88bc dd07 f73c d1e4 58bb
00000170: 11ec ef3c fc54 c1bc 80cb ca3c 5710 ba3a
00000180: e4f6 4e3c 7cbe e4bc 0cf0 a8bc 0cf3 033d
00000190: 5d72 15bd c891 713c 01e1 753c 318c 5039
000001a0: af49 69bc 3fc5 e8bc 83c5 8d3c 4535 a4bc
000001b0: 52a3 093d 2aac f2bc 72e6 d33c b15c 9fbc
000001c0: 69d1 373c 1f38 12bd f311 09bd 408f 2bbc
000001d0: e604 9ebb 92c7 8bbc 52bc 263a 578c fc3c
000001e0: 7c7d 13bd 6f2b 6ebc 1e75 ef3c 04eb a7bb
000001f0: f498 ab3c 07c4 a03c 53d3 c53c 5d72 9dbb
00000200: 0d2d 00bd 95f0 f6bc 4b6f 693c 166a 963c
00000210: 5e64 1ebc e0b3 8e3b 12b5 823c dc13 2fbc
00000220: 07ce 143c 2bb5 bcbc 0600 e4bb 78c6 d73a
00000230: 91f0 f1bc 930d babc f5ed 06bb f00d 043d
00000240: ff9e 553c e440 2d3c b03e ed3b 28b5 76bc
00000250: 6e5b 18bd cfc9 a9bc e542 b0bc dcf2 aabc
00000260: ca10 44bc 61ba f43b a247 ccbc b64c 183c
00000270: cb7c c0bc cd6e d03c d5a8 a43a 513e 9c3c
00000280: d2e6 923c a557 20bb d385 74ba 86b6 cc3c
00000290: 435d 36bc b3eb c0bc 4f5d b43c 1254 873c
000002a0: 2d96 773b 24be edbc 33c2 2b3c 8b16 fb3c
000002b0: fd5c 32bc 8198 50bb dc46 80bc e5b8 c23c
000002c0: 1956 8fbb c6e1 c8bc ff1b 983a 20a1 4a3b
000002d0: 4bdd bdbc 5462 5c3c fa21 e7bc 84e4 d33c
000002e0: 3e72 e2bc 00a4 873c d513 48bc 6474 81bc
000002f0: e1a9 d03c 4529 d4bc 13f9 fd3b 317c 76bc
00000300: ba02 083d 1bb8 973c cdd3 0c3d 570a 833b
00000310: 2086 6ebb 5d1d b6b9 9a3f d3bc 09b1 103b
00000320: 9e42 803c 4ef3 a2bc f7f7 f13b f747 35bc
00000330: 3bda 1eba c982 ac3b 1147 c73c 96da 153c
00000340: 9ec6 8f3c 6b90 173c f9ad e23b b9bf 983a
00000350: 0795 f1bc ecca 2a3c 8434 0f3c 64b4 3c3c
00000360: 7e7f 52bc 6e71 1a3c 9ecb ebbc 9e67 97bc
00000370: 9c84 643c 0e4f fbbc 23e6 7abc 9a63 c13c
00000380: 6749 e33b 5979 de3c 5de8 083d bb2f cb3c
00000390: 4d1f 1b3c 4863 cebc 62ea 8ebc 380e eebc
000003a0: 3060 893b 7fc9 983b b937 0bbd 1c71 f93c
000003b0: 05f8 903b 818d e33c c65d b73c 35a2 5cbc
000003c0: 74cd 133d 35ee 90bc 9e08 05bb ad07 c93c
000003d0: f607 933b 925b 09bd 87c4 32bc ccac 0f3d
000003e0: 21f3 223c f1d5 d1bc 6b47 ccbc 0e0b 423b
000003f0: 47a7 04bd f17b e83c 393c cb3c aad9 bc3c

fc1.bias f4 [100]
0.03542507 0.0064123743 -0.008825851 -0.019382598 0.02900042 -0.019928187 0.035600387 -0.013661974
-0.02028746 0.03632749 0.009157189 0.027033437 0.02694799 -0.02448204 0.030197073 0.03430705
0.012287723 0.030556332 0.0308146 0.003431846 0.026379626 -0.030411826 0.046380926 -0.011375735
-0.022192912 -0.010762596 0.0029789961 0.041561615 0.024348091 0.0049985438 0.023737691 -0.026317345
-0.007921235 -0.010615258 0.00551357 -0.025218943 -0.03254988 0.01696166 0.011513513 0.035971012
0.012745216 0.009040335 0.016690755 0.014683712 0.036385998 0.008898603 0.012324312 -0.0014021785
3.2198048e-05 0.02667228 -0.023557495 -0.015317373 0.040000558 0.03967547 0.03457528 -0.003756961
0.017064746 0.03879821 0.0026622424 0.00857693 0.009382016 0.014878637 -0.02812716 -0.027520139
-0.0056920224 0.005435855 -0.004521697 0.02554952 0.046201438 -0.008838209 0.009160602 -0.015756039
0.017181413 -0.004889733 -0.0053290226 -0.008866108 0.02449024 0.030557418 -0.031030752 -0.01596725
0.015053132 -0.010654693 0.010873792 -0.028940994 0.029821588 -0.022117473 0.017443983 0.002285193
0.019222463 0.030090269 0.02039148 -0.016222082 -0.02366631 0.0060486514 -0.021688402 -0.027802
-0.01956321 0.018669557 0.04079878 -0.013269261
00000000: e119 113d e51e d23b 4d9a 10bc 41c8 9ebc
00000010: 4a92 ed3c 7040 a3bc b6d1 113d 79d6 5fbc
00000020: e331 a6bc 22cc 143d 0908 163c 3a75 dd3c
00000030: 08c2 dc3c 8f8e c8bc da5f f73c 8d85 0c3d
00000040: 7252 493c 4651 fa3c e66e fc3c d2e8 603b
00000050: 161a d83c 3922 f9bc edf9 3d3d 4a61 3abc
00000060: e9cd b5bc 9955 30bc 433b 433b 833c 2a3d
00000070: a675 c73c d3ca a33b 8c75 c23c 7997 d7bc
00000080: 11c8 01bc 9eeb 2dbc 2dab b43b f597 cebc
00000090: 0653 05bd 2ef3 8a3c 2ca3 3c3c 5756 133d
000000a0: 4fd1 503c ea1d 143c 0dbb 883c f493 703c
000000b0: 7c09 153d 72cb 113c e9eb 493c 4ec9 b7ba
000000c0: 640c 0738 d37f da3c a6fb c0bc b8f5 7abc
000000d0: a0d7 233d bf82 223d cf9e 0d3d 5937 76bb
000000e0: 5ecb 8b3c dfea 1e3d 0479 2e3b 4086 0c3c
000000f0: 07b7 193c 87c5 733c ee6a e6bc ea71 e1bc
00000100: 2584 babb 421f b23b be2a 94bb 3a4d d13c
00000110: b83d 3d3d 23ce 10bc 5a16 163c cf12 81bc
00000120: 09c0 8c3c 0e3a a0bb 159f aebb 2743 11bc
00000130: c19f c83c 8d53 fa3c 3434 febc c0cd 82bc
00000140: 69a1 763c 0591 2ebc fd27 323c aa15 edbc
00000150: 674c f43c b42f b5bc afe6 8e3c 2dc3 153b
00000160: 6d78 9d3c de7f f63c 080c a73c 2ce4 84bc
00000170: d9df c1bc c433 c63b e0ab b1bc 05c1 e3bc
00000180: 0643 a0bc e6f0 983c 9f1c 273d 5167 59bc

fc2.weight f4 [10, 100]
-0.08174527 -0.03346977 -0.07001277 0.26040402 -0.12440956 -0.023983475 -0.056700107 0.07541194
0.008294268 0.015755134 -0.008920048 -0.051792193 0.030875856 0.033687048 -0.04911588 -0.15150587
-0.105214335 0.10805641 -0.087112755 -0.092328 -0.01803153 0.002801437 0.17974965 0.0040411362
-0.10129232 -0.021460861 -0.062391788 -0.017304258 0.025415996 0.030507011 0.068887696 -0.055645946
0.007588901 0.0020516193 0.11157493 0.15548997 -0.08850503 -0.04784179 0.054407243 -0.16824019
0.15419768 -0.02070594 0.18994334 -0.080392845 -0.015667615 0.1668312 -0.048305586 0.111028686
0.21571203 -0.120956406 -0.022414526 0.09824142 0.011343689 -0.057804346 -0.111327164 0.0068608862
-0.03766773 0.008207522 -0.026215425 -0.09732561 -0.013953995 0.0950535 -0.040129695 -0.031214973
0.024352087 -0.120770015 -0.123093456 -0.06559531 -0.046905156 -0.1498854 -0.065015584 -0.104185835
0.0449206 0.04693087 0.013180276 -0.17992191 0.13229755 0.08959414 -0.021864178 -0.07701793
-0.11432476 -0.15743689 -0.18000747 0.035505243 0.075831614 0.0989925 -0.06414342 -0.021163918
0.0897758 0.106890276 0.058415875 -0.18051803 -0.0014446509 0.13766113 0.13956589 0.124919154
0.13482174 -0.051844466 -0.09706018 -0.02583647 0.070892625 -0.06858998 -0.079923704 -0.09755437
-0.10167795 -0.06483637 0.10695926 -0.055955254 -0.07654132 -0.14144899 -0.02105619 -0.0302058
-0.2532448 -0.0959247 -0.11919792 -0.081854135 0.07901807 -0.00687544 -0.13075696 -0.15448257
0.13230194 -0.08143757 -0.16900751 -0.010901198 -0.0030033572 0.07860112 0.012421551 -0.0700729
0.16904089 0.18099214 0.058549203 -0.07154953 -0.0734193 -0.015480268 -0.0018585906 -0.01054711
0.09720117 0.045059986 0.13126312 -0.045796838 -0.0012374326 0.104112215 -0.12220246 0.047363635
0.025413675 -0.062729865 0.05616312 0.117431775 -0.12531544 0.15662314 0.096385844 -0.06604081
0.13554181 -0.05396336 0.04753537 0.016141627 0.08892382 -0.038104307 0.07390945 -0.055584524
-0.02948231 -0.019259773 0.06014194 0.08742533 -0.058713924 -0.02698536 0.1375937 -0.016200352
-0.16815546 0.17869991 -0.0050035478 0.03573594 0.1380311 -0.013208087 0.020178538 0.12698272
-0.17377558 0.12889266 -0.00433036 0.16447005 -0.039771464 -0.04919408 -0.11388669 0.10719296
-0.105028644 0.061099984 0.14783067 -0.1388141 -0.0040860777 -0.05999494 -0.048941646 0.21715742
-0.028297832 -0.09038628 -0.04289968 0.124871604 0.011568459 -0.05229796 -0.13710558 0.0044227606
-0.05188759 0.08766026 0.011150475 -0.07709666 0.20328152 -0.03871364 -0.008752979 -0.09453572
-0.092678115 -0.047709398 0.11437286 0.12280995 -0.1480628 0.06268283 0.003539204 -0.17063281
0.074030586 0.01218587 0.041196816 0.06386479 -0.13745566 0.09931142 0.09388286 0.046885684
-0.09836853 -0.15699133 -0.025168993 -0.12526102 0.008132461 -0.052090574 -0.16143462 -0.068274304
-0.0015560066 0.094833285 -0.09888868 0.0079603335 -0.019173713 0.22985345 0.024495373 0.0027091254
0.1227629 -0.039301 -0.08530248 -0.0037878954 -0.02598293 -0.0046478324 -0.02530262 0.0019677219
0.045255728 0.014851582 0.12536953 -0.06779849 0.023910685 0.0869726 -0.05673754 0.13778274
00000000: 106a a7bd 9917 09bd db62 8fbd ad53 853e
00000010: 70ca febd fe78 c4bc 5f3e 68bd 9371 9a3d
00000020: aee4 073c e910 813c 6525 12bc 0d24 54bd
00000030: 5def fc3c 6efb 093d bc2d 49bd 5b24 1bbe
00000040: 9d7a d7bd ae4c dd3d 2c68 b2bd 7616 bdbd
00000050: dcb6 93bc 5098 373b 4b10 383e 826b 843b
00000060: 5972 cfbd b0ce afbc 888e 7fbd a9c1 8dbc
00000070: 3535 d03c d7e9 f93c fe14 8d3d 01ed 63bd
00000080: 51ac f83b 7674 063b 6681 e43d c338 1f3e
00000090: 2042 b5bd c1f5 43bd 21da 5e3d 2847 2cbe
000000a0: ffe5 1d3e 819f a9bc 8280 423e 01a5 a4bd
000000b0: 5f59 80bc ccd5 2a3e 14dc 45bd 0263 e33d
000000c0: 9de3 5c3e feb7 f7bd ab9e b7bc cc32 c93d
000000d0: e1da 393c 40c4 6cbd 7fff e3bd 49d1 e03b
000000e0: 7a49 1abd d878 063c bbc1 d6bc a652 c7bd
000000f0: 4c9f 64bc 69ab c23d 095f 24bd 8bb6 ffbc
00000100: 077e c73c 4556 f7bd 6c18 fcbd d556 86bd
00000110: 9f1f 40bd 8f7b 19be e426 85bd 625f d5bd
00000120: aafe 373d 953a 403d 16f2 573c 733d 38be
00000130: 0279 073e 227d b73d 811c b3bc 94bb 9dbd
00000140: 1a23 eabd 2337 21be e153 38be f26d 113d
00000150: 9b4d 9b3d 94bc ca3d a05d 83bd f45f adbc
00000160: 60dc b73d 4ae9 da3d 7c45 6f3d b8d9 38be
00000170: 715a bdba 0af7 0c3e 5cea 0e3e 9dd5 ff3d
00000180: b60e 0a3e dd5a 54bd 7dc7 c6bd 01a7 d3bc
00000190: 2730 913d e778 8cbd 0aaf a3bd 96ca c7bd
000001a0: 873c d0bd eec8 84bd 750d db3d 5631 65bd
000001b0: b2c1 9cbd 01d8 10be 087e acbc 2772 f7bc
000001c0: 4da9 81be 2b74 c4bd 0a1e f4bd 24a3 a7bd
000001d0: 3ad4 a13d 5f4b e1bb 27e5 05be ae30 1ebe
000001e0: 297a 073e bec8 a6bd 4e10 2dbe f09a 32bc
000001f0: f9d3 44bb a0f9 a03d c383 4b3c 6182 8fbd
00000200: 0e19 2d3e 0156 393e 4ad1 6f3d 8f88 92bd
00000210: dc5c 96bd f3a0 7dbc f49b f3ba c9cd 2cbc
00000220: 6811 c73d d290 383d d769 063e 7795 3bbd
00000230: 5931 a2ba c938 d53d 4945 fabd 5f00 423d
00000240: 5730 d03c 8478 80bd 4d0b 663d 1280 f03d
00000250: b152 00be d161 203e f165 c53d 6740 87bd
00000260: 79cb 0a3e af08 5dbd 73b4 423d 723b 843c
00000270: b11d b63d 4313 1cbd d65d 973d 99ac 63bd
00000280: e384 f1bc acc6 9dbc 6557 763d 0d0c b33d
00000290: 037e 70bd 6710 ddbc 5de5 0c3e 9ab6 84bc
000002a0: f230 2cbe 1cfd 363e cdf4 a3bb d95f 123d
000002b0: 0658 0d3e bb66 58bc 764d a53c c207 023e
000002c0: 3af2 31be 70fc 033e b1e5 8dbb d66a 283e
000002d0: 67e7 22bd bb7f 49bd 6d3d e9bd fc87 db3d
000002e0: 4219 d7bd fa43 7a3d ec60 173e 4925 0ebe
000002f0: 81e4 85bb 41bd 75bd 0977 48bd 845e 5e3e
00000300: dbd0 e7bc 711c b9bd 93b7 2fbd afbc ff3d
00000310: a289 3d3c 6336 56bd 6865 0cbe ceec 903b
00000320: 1588 54bd 3987 b33d 7bb0 363c dbe4 9dbd
00000330: 0829 503e 3292 1ebd a868 0fbc f29b c1bd
00000340: 06ce bdbd ee6a 43bd 513c ea3d c883 fb3d
00000350: c69d 17be db5f 803d fdf1 673b 5eba 2ebe
00000360: 599d 973d 3ea7 473c febd 283d 8bcb 823d
00000370: 2dc1 0cbe c963 cb3d a845 c03d 340b 403d
00000380: 7175 c9bd 56c2 20be 342f cebc 6d44 00be
00000390: 043e 053c ed5c 55bd 1e4f 25be 66d3 8bbd
000003a0: ebf2 cbba f437 c23d 2686 cabd 0f6c 023c
000003b0: 3112 9dbc b45e 6b3e 85aa c83c 958b 313b
000003c0: 1e6b fb3d 16fa 20bd 11b3 aebd 573e 78bb
000003d0: 27da d4bc d84c 98bb 7147 cfbc e5f4 003b
000003e0: 125e 393d 0d54 733c df60 003e efd9 8abd
000003f0: 57e0 c33c b11e b23d 9f65 68bd eb16 0d3e

fc2.bias f4 [10]
0.075733714 0.04249989 0.015850475 -0.072541 -0.07962748 0.06091587 0.020568438 -0.033369288
-0.011878236 -0.07967079
00000000: 471a 9b3d 5d14 2e3d dbd8 813c 6090 94bd
00000010: bb13 a3bd eb82 793d 247f a83c 3cae 08bd
00000020: ef9c 42bc 702a a3bd
