ckpt/mnist/sgd/weights.pt (torch, 319519 bytes, 4 tensors)

fc1.weight f4 [100, 784]
7.3669326e-05 0.021100866 -0.037015587 0.016463108 -0.0042435564 -0.023721656 -0.029268583 -0.029923689
0.017448543 -0.011255352 0.0043722815 0.007402195 -0.0031124565 0.004253094 0.009055808 0.0012132275
0.0067703626 -0.0384151 -0.016019328 -0.028459268 -0.033471994 0.0040870365 0.0025562022 -0.031252638
-0.011403733 -0.0046925517 -0.02251804 0.013987525 -0.0058255503 0.020457368 0.010234347 -0.009505709
0.023680804 -0.04280115 0.027864354 0.005425852 -0.030503895 0.026674312 0.0043833787 0.012237395
0.030819634 0.0013884347 -0.008199964 -0.0070004524 0.020516379 0.017822364 0.018567597 -0.036903042
0.005615013 0.023367135 0.004269054 -0.0038663435 0.0026473936 -0.03655339 -0.03208378 -0.033305816
0.024019709 0.013130098 -0.026300488 0.024115147 0.024631515 0.027314268 0.0056251497 -0.0097912755
0.018038739 0.020625796 0.03511265 -0.0090743415 0.03782717 0.040655162 0.0097776335 0.01574256
0.03314882 -0.01684088 -0.013319287 0.025156781 -0.006292436 -0.00037047864 -0.030268956 0.018820867
-0.014067814 -0.0073414347 -0.0027284536 -0.036632184 -0.02946659 -0.04245989 0.010749919 -0.026520967
-0.029440133 0.012429454 -0.03306633 0.018775716 0.024272727 -0.0042527886 0.03444384 -0.00032451082
0.018710751 0.027935302 -0.0040682643 -0.0051514306 0.0027852035 0.008663268 -0.017239494 -0.03504457
-0.02271963 0.0018822212 -0.0050429897 0.021315813 -0.009745985 -0.025800902 -0.018495286 -0.039888795
-0.016494123 0.0048685805 -0.020751419 0.025335047 0.0061985366 -0.011333431 0.022183415 -0.03259489
0.022849532 0.032326493 0.047289174 0.056389306 0.059929587 0.05373447 0.028317882 -0.023831137
0.023141041 0.03963686 0.014204719 -0.003504703 0.0043390812 -0.037653804 -0.026693469 -0.04293256
-0.048779525 -0.036855925 0.014470948 -0.042889915 -0.024238275 -0.02339667 -0.013935315 0.010481935
-0.014892686 -0.035755407 -0.018736104 -0.021424057 -0.0081156 -0.00058543956 0.003794903 0.0057699136
-0.0068580764 0.025907753 0.02668871 0.017128775 0.049384944 0.057945285 0.061192304 0.028899804
0.040722676 0.026131425 -0.0015587158 -0.04970339 -0.03793418 -0.009923642 -0.002256719 0.01899325
-0.0114191165 -0.04320666 0.024252063 -0.034788508 0.017939609 -0.027157294 -0.00578885 0.008248745
-0.026758734 -0.0010807182 -0.061120473 -0.018118095 -0.0031499993 -0.006360506 -0.03046896 -0.035638984
-0.0015047423 -0.02249037 -0.032586765 -0.02970055 -0.030410677 -0.038609486 0.020686083 -0.03740919
-0.05361155 0.0019108034 -0.0076211547 -0.00067899865 -0.0062293513 0.014905308 -0.030270979 -0.030536223
-0.036935605 -0.051872138 -0.035711084 -0.009483005 -0.014470098 -0.0548096 -0.06412719 -0.015746582
-0.024263076 -0.04108073 -0.04561849 -0.027895583 -0.06248968 -0.045578036 -0.035132725 -0.023780229
-0.02683743 -0.031840656 -0.04597023 -0.013015709 0.0070409356 -0.018380133 0.007943446 0.015525955
-0.023592824 -0.02216098 -0.028638143 -0.022209376 -0.04573245 -0.05327141 -0.01961462 -0.006160649
-0.03354071 -0.007961524 -0.003098462 -0.011511524 0.0082695335 0.02165947 0.01747674 0.0017972229
-0.03648894 -0.039917864 -0.060906537 -0.039412647 -0.055590674 -0.028361697 -0.033024285 -0.04033451
-0.020806717 -0.002790309 -0.027509876 -0.027057802 0.015831457 -0.004270949 0.0054283924 -0.023086973
00000000: eb7e 9a38 b9db ac3c a89d 17bd a4dd 863c
00000010: 880d 8bbb eb53 c2bc abc4 efbc 8622 f5bc
00000020: 3ff0 8e3c 5e68 38bc 5b45 8f3b 1d8e f23b
00000030: 5bfa 4bbb 8a5d 8b3b d05e 143c 2905 9f3a
00000040: ebd9 dd3b 2759 1dbd f73a 83bc 6923 e9bc
00000050: ee19 09bd 8cec 853b f585 273b c402 00bd
00000060: b9d6 3abc fac3 99bb c177 b8bc ef2b 653c
00000070: 42e4 bebb 3696 a73c f6ad 273c d5bd 1bbc
00000080: 3ffe c13c 4250 2fbd c943 e43c 58cb b13b
00000090: 4ee3 f9bc 1684 da3c 72a2 8f3b 5b7f 483c
000000a0: 7579 fc3c 23fc b53a 2459 06bc 0d64 e5bb
000000b0: f711 a83c 3500 923c 131b 983c a527 17bd
000000c0: 25fe b73b 6f6c bf3c 6ce3 8b3b 7b62 7dbb
000000d0: e57f 2d3b 02b9 15bd 486a 03bd ae6b 08bd
000000e0: fbc4 c43c 9f1f 573c 1f74 d7bc 218d c53c
000000f0: 08c8 c93c 2cc2 df3c 2d53 b83b 966b 20bc
00000100: fac5 933c 6ef7 a83c 48d2 0f3d 8cac 14bc
00000110: aaf0 1a3d 0786 263d 5e32 203c 8bf6 803c
00000120: 0fc7 073d e3f5 89bc 2439 5abc 9815 ce3c
00000130: c730 cebb cd3c c2b9 9af6 f7bc 382e 9a3c
00000140: b07c 66bc 6b90 f0bb dbcf 32bb a10b 16bd
00000150: eb63 f1bc 6cea 2dbd 6e20 303c 8042 d9bc
00000160: 6f2c f1bc e9a4 4b3c 8f70 07bd 88cf 993c
00000170: 99d7 c63c fa5a 8bbb fc14 0d3d 1b23 aab9
00000180: 4a47 993c 93d8 e43c 134f 85bb 55cd a8bb
00000190: f687 363b 61f0 0d3c d739 8dbc e58a 0fbd
000001a0: 841e babc ddb4 f63a aa3f a5bb 809e ae3c
000001b0: a0ad 1fbc 6a5c d3bc 6d83 97bc 6f62 23bd
000001c0: af1e 87bc 9d88 9f3b e1fe a9bc 728b cf3c
000001d0: 181d cb3b dbaf 39bc feb9 b53c 3882 05bd
000001e0: f12e bb3c c968 043d 4bb2 413d 79f8 663d
000001f0: ba78 753d ad18 5c3d e7fa e73c 8439 c3bc
00000200: 4892 bd3c 435a 223d e9ba 683c 29af 65bb
00000210: da2e 8e3b e03a 1abd 43ac dabc 0dda 2fbd
00000220: 0acd 47bd 3df6 16bd 8e17 6d3c 56ad 2fbd
00000230: 598f c6bc 60aa bfbc f350 64bc 6cbc 2b3c
00000240: 7400 74bc 4374 12bd 757c 99bc 8181 afbc
00000250: 4bf7 04bc 2f78 19ba e8b3 783b 8b11 bd3b
00000260: b7b9 e0bb 7f3c d43c 48a2 da3c a551 8c3c
00000270: de47 4a3d 0958 6d3d c8a4 7a3d 48bf ec3c
00000280: d2cc 263d 9211 d63c d34d ccba c895 4bbd
00000290: df60 1bbd c596 22bc 76e5 13bb bb97 9b3c
000002a0: 3f17 3bbc 77f9 30bd 43ac c63c 657e 0ebd
000002b0: 16f6 923c f978 debc 65b0 bdbb bf25 073c
000002c0: 2235 dbbc e3a6 8dba 7659 7abd 666c 94bc
000002d0: 3870 4ebb cb6b d0bb 0a9a f9bc 2ffa 11bd
000002e0: c63a c5ba b93d b8bc b379 05bd 914e f3bc
000002f0: d01f f9bc fb24 1ebd dc75 a93c 613a 19bd
00000300: c997 5bbd ec73 fa3a e1ba f9bb d4fe 31ba
00000310: 961f ccbb 6535 743c d8fa f7bc 1a27 fabc
00000320: ca49 17bd e177 54bd c945 12bd 9b5e 1bbc
00000330: fd13 6dbc 0880 60bd 1e55 83bd fafe 80bc
00000340: 5cc3 c6bc 4444 28bd 74da 3abd 4785 e4bc
00000350: 2ef5 7fbd 09b0 3abd 55e7 0fbd c1ce c2bc
00000360: 2cda dbbc 596b 02bd 484b 3cbd d73f 55bc
00000370: a6b7 e63b ef91 96bc 3a25 023c 9360 7e3c
00000380: bd45 c1bc f28a b5bc 8a9a eabc 70f0 b5bc
00000390: f351 3bbd 1f33 5abd d7ae a0bc 45df c9bb
000003a0: fc61 09bd 0d71 02bc 910f 4bbb d59a 3cbc
000003b0: f07c 073c 336f b13c 612b 8f3c cb90 eb3a
000003c0: 6d75 15bd ea80 23bd 2279 79bd 286f 21bd
000003d0: 0cb3 63bd ca56 e8bc 7944 07bd cd35 25bd
000003e0: d972 aabc 9edd 36bb 645c e1bc 53a8 ddbc
000003f0: f9b0 813c 51f3 8bbb a8e0 b13b e420 bdbc

fc1.bias f4 [100]
-0.011152653 0.009278719 -0.013947678 0.009558827 -0.023128692 -0.03484017 -0.013090885 -0.022279372
-0.00064518355 -0.002329497 -0.029233994 0.0018032559 0.013155746 -0.02844837 0.0057655 -0.0123163555
0.01612636 0.011782276 0.00068356725 0.00022625587 -0.020891327 -0.009425766 0.016890941 0.0337157
0.046440825 0.029756078 0.037117753 0.013324392 -0.026128612 0.009023014 0.00658371 -0.0069136787
0.029576957 -0.014231861 -0.02175374 0.009609705 0.019199058 0.008561785 -0.02439272 -0.002631069
0.010842721 0.0047022845 0.021136241 0.0042973864 -0.025001053 0.033309136 0.016329195 0.022634083
-0.011877438 0.0005051819 0.010029852 0.027621776 0.028395224 -0.032704428 0.022944214 -0.012004478
0.012490305 -0.02297324 0.027032748 0.025479948 0.023096526 -0.011134679 0.0137448 0.0047334433
0.0038156856 -0.0062271645 -0.005533987 -0.0053509204 0.029751278 0.017316198 0.025265101 0.014634634
-0.026283044 0.034453295 -0.0028024504 0.045412816 -0.02178636 0.012320257 -0.026427219 -0.0093816705
-0.01874483 -0.0020060977 0.02838883 0.039678734 -0.031578362 -0.008016367 -0.00816233 0.013777592
-0.021798583 -0.043708544 0.028685916 0.023295991 -0.014974549 0.005504868 0.0057970956 0.00067733973
0.014011045 -0.006418955 0.0030477871 -0.0051689884
00000000: 9eb9 36bc c505 183c cd84 64bc a09c 1c3c
00000010: 6278 bdbc 91b4 0ebd 277b 56bc 3b83 b6bc
00000020: 8921 29ba 79aa 18bb 217c efbc 3a5b ec3a
00000030: 338b 573c 8e0c e9bc 85ec bc3b 8aca 49bc
00000040: 6e1b 843c 730a 413c 6c31 333a 193f 6d39
00000050: 4a24 abbc 876e 1abc df5e 8a3c 7919 0a3d
00000060: bc38 3e3d 05c3 f33c c908 183d 8d4e 5a3c
00000070: ac0b d6bc 44d5 133c 2abc d73b 248c e2bb
00000080: 604b f23c c02c 69bc e634 b2bc 0672 1d3c
00000090: 5847 9d3c bb46 0c3c 3ed3 c7bc 036e 2cbb
000000a0: aba5 313c 9f15 9a3b e925 ad3c 17d1 8c3b
000000b0: 02cf ccbc 296f 083d cec4 853c 1d6b b93c
000000c0: 9699 42bc 2f6e 043a 4054 243c 1047 e23c
000000d0: 1a9d e83c 14f5 05bd 81f5 bb3c 6eae 44bc
000000e0: 23a4 4c3c 6032 bcbc c873 dd3c 53bb d03c
000000f0: ed34 bd3c 3b6e 36bc df31 613c 001b 9b3b
00000100: 9510 7a3b 3e0d ccbb 7356 b5bb c656 afbb
00000110: f4b8 f33c b3da 8d3c c2f8 ce3c 1bc6 6f3c
00000120: 8a4f d7bc e61e 0d3d 51a9 37bb ca02 3a3d
00000130: 4f79 b2bc e7da 493c e57d d8bc 94b5 19bc
00000140: c28e 99bc bc78 03bb b18f e83c 2b86 223d
00000150: 5058 01bd 1557 03bc 4bbb 05bc 69bb 613c
00000160: f192 b2bc bb07 33bd bafe ea3c 3cd7 be3c
00000170: d057 75bc 2e62 b43b 90f5 bd3b 808f 313a
00000180: 958e 653c 1956 d2bb 62bd 473b 9e60 a9bb

fc2.weight f4 [10, 100]
0.10232765 0.027031962 0.09501744 -0.09524652 0.19138575 -0.026902221 -0.020311039 0.18216436
0.18626536 -0.13945046 -0.013649612 0.14810097 -0.088644475 0.09474891 0.0721222 -0.18500546
0.08732736 0.084660605 -0.26926854 0.20644557 0.2728674 -0.08206353 0.20706224 -0.10794774
-0.03354506 0.059089053 -0.14066781 -0.12041576 0.046985377 0.09619966 -0.03404234 0.032012746
-0.01937485 0.20603207 0.037432157 0.09201109 -0.1360962 0.14346533 0.09038943 0.078467004
-0.11993807 -0.1587368 -0.28257394 0.19196562 0.1778063 -0.052671786 0.09966303 0.09895212
-0.09756619 -0.055165857 0.04552066 -0.017705673 -0.098882005 -0.15273961 -0.08939142 0.15001592
-0.105881974 0.12019711 0.15227821 -0.0275558 -0.14100054 0.18446152 0.026761295 -0.09421799
0.23004684 -0.08629253 -0.053578824 -0.25195405 0.07344053 -0.17592856 0.11832627 -0.2574791
-0.014223736 -0.016339948 0.029040229 -0.12945312 -0.033390258 0.08729541 0.00821262 0.014677827
-0.1980641 0.08876009 0.017691048 -0.047628645 -0.2805942 -0.1652103 0.020791365 0.1718514
-0.045716155 -0.056274477 0.21945255 0.07876522 0.15014566 -0.010865249 0.045563277 -0.057559248
-0.1638765 -0.06063484 -0.095116965 0.04269334 -0.08691956 -0.14328396 -0.06348986 -0.17642483
-0.04523217 0.15148832 0.030560175 -0.09530947 -0.11875863 0.25195858 0.06481268 -0.044670325
-0.09996483 -0.013316923 0.13276684 -0.078449085 -0.009787715 -0.16147302 -0.19058947 -0.08985199
-0.13093822 0.032996617 -0.06983031 0.15290305 -0.22191559 -0.18497127 0.061838552 0.05175295
-0.17213593 0.2392547 -0.12553406 0.02009728 0.026428644 -0.048981868 0.07569467 -0.062107027
0.12911099 -0.18223193 0.10756962 -0.21638526 0.08439081 -0.1995216 0.16466996 -0.14801137
-0.14451106 -0.029779611 0.15442882 0.04041388 -0.15371354 0.05732642 0.10363059 -0.016168457
-0.107298344 0.06412402 0.049538206 -0.13497454 0.041704785 -0.22074933 -0.053655874 0.17302372
0.022411507 -0.16330394 0.15615606 0.015082619 -0.037378076 -0.084836505 0.11751275 0.13696945
-0.12998073 0.059885975 0.04321586 0.1997727 0.029993808 -0.026685532 -0.18176937 -0.08036548
-0.051001206 0.1516813 0.046535984 -0.091953196 0.20846638 0.14445612 -0.073048204 -0.17688109
0.32120636 -0.042754952 -0.053598356 0.05022696 0.064919405 0.19312604 -0.034600474 0.11531529
0.060907423 0.045731746 0.10275529 -0.039332755 0.033654314 -0.16487655 0.085316226 0.1703785
0.24449691 -0.22655049 -0.080147274 -0.019099945 0.08307413 0.043300614 -0.13165006 -0.24531394
-0.10124537 -0.0027241574 -0.048091907 0.047186695 0.042618282 -0.17029388 0.22192825 -0.027634399
-0.36897892 -0.06691536 -0.16848628 -0.04227274 0.06358059 -0.15541442 0.27436343 0.16551143
-0.049286198 0.22730441 -0.1925421 -0.11674555 -0.04776123 0.04474701 0.19497216 -0.06429298
-0.10481356 0.13714086 0.09871441 -0.19684255 0.047073554 -0.057460614 -0.28545886 0.12510595
-0.16336744 0.17011869 -0.036708824 0.09085601 -0.03199551 0.11447729 -0.19647123 -0.14068688
0.29681763 -0.026086202 0.28164867 -0.17754482 -0.093103364 -0.05481604 -0.13461979 0.09953133
00000000: 2991 d13d 2272 dd3c 8198 c23d 9c10 c3bd
00000010: a0fa 433e 0c62 dcbc 5663 a6bc 4b89 3a3e
00000020: 59bc 3e3e 1acc 0ebe 9fa2 5fbc c8a7 173e
00000030: 3c8b b5bd b70b c23d ceb4 933d 1272 3dbe
00000040: b0d8 b23d 8a62 ad3d 91dd 89be 7866 533e
00000050: 47b5 8b3e ed10 a8bd 2008 543e b413 ddbd
00000060: 8b66 09bd 5d07 723d 390b 10be 8a9c f6bd
00000070: bd73 403d 5404 c53d fb6f 0bbd cc1f 033d
00000080: 01b8 9ebc 12fa 523e 7652 193d 4f70 bc3d
00000090: cd5c 0bbe 93e8 123e 181e b93d 4fb3 a03d
000000a0: 17a2 f5bd e68b 22be 88ad 90be a392 443e
000000b0: db12 363e 5fbe 57bd 211c cc3d 69a7 ca3d
000000c0: c8d0 c7bd 98f5 61bd df73 3a3d 7d0b 91bc
000000d0: a682 cabd c667 1cbe d912 b7bd c69d 193e
000000e0: a6d8 d8bd e729 f63d d2ee 1b3e b3bc e1bc
000000f0: 7262 10be 7be3 3c3e 813a db3c 5df5 c0bd
00000100: 6691 6b3e 23ba b0bd 7875 5bbd 1f00 81be
00000110: fd67 963d 9e26 34be 0b55 f23d 4dd4 83be
00000120: ac0a 69bc 5bdb 85bc c6e5 ed3c 5c8f 04be
00000130: 39c4 08bd f0c7 b23d 3a8e 063c 457b 703c
00000140: 51d1 4abe dac7 b53d d1ec 903c 4116 43bd
00000150: 0baa 8fbe e42c 29be a752 aa3c d0f9 2f3e
00000160: dd40 3bbd 1180 66bd 2bb8 603e a94f a13d
00000170: c9bf 193e 2804 32bc 8fa0 3a3d 3fc3 6bbd
00000180: 3ecf 27be 3d5c 78bd afcc c2bd 36df 2e3d
00000190: e202 b2bd 08b9 12be f906 82bd b6a8 34be
000001a0: 5e45 39bd c11f 1b3e 5559 fa3c 9d31 c3bd
000001b0: b937 f3bd b700 813e 83bc 843d 3bf8 36bd
000001c0: 5cba ccbd 392f 5abc 08f4 073e eaa9 a0bd
000001d0: a75c 20bc 2f59 25be e329 43be 5204 b8bd
000001e0: ab14 06be 7627 073d 3203 8fbd 9e92 1c3e
000001f0: d73d 63be 1c69 3dbe 6c4a 7d3d e7fa 533d
00000200: 6744 30be 2fff 743e 008c 00be 0da3 a43c
00000210: e280 d83c 36a1 48bd cf05 9b3d f063 7ebd
00000220: ac35 043e 029b 3abe 764d dc3d 1994 5dbe
00000230: 17d5 ac3d 644f 4cbe 3e9f 283e 4b90 17be
00000240: b5fa 13be 5ff4 f3bc 9722 1e3e 0689 253d
00000250: 1567 1dbe 1ccf 6a3d 463c d43d b673 84bc
00000260: 3cbf dbbd 7453 833d 93e8 4a3d c436 0abe
00000270: a3d2 2a3d 1d0c 62be 43c6 5bbd 212d 313e
00000280: 5698 b73c 2639 27be 60e7 1f3e 171d 773c
00000290: c119 19bd c3be adbd 86aa f03d b841 0c3e
000002a0: ab19 05be ff4a 753d 1d03 313d 3791 4c3e
000002b0: 93b5 f53c 9e9b dabc c021 3abe a896 a4bd
000002c0: a4e6 50bd 5852 1b3e 849c 3e3d f551 bcbd
000002d0: 3678 553e 4eec 133e 4c9a 95bd 5120 35be
000002e0: 2975 a43e d11f 2fbd f389 5bbd c9ba 4d3d
000002f0: 77f4 843d d5c2 453e 3ab9 0dbd 6c2a ec3d
00000300: 107a 793d 3651 3b3d 5e71 d23d 621b 21bd
00000310: 1bd9 093d 66d5 28be 46ba ae3d b477 2e3e
00000320: 665d 7a3e dafc 67be 4124 a4bd 7d77 9cbc
00000330: c522 aa3d fc5b 313d 46cf 06be 9433 7bbe
00000340: bc59 cfbd c787 32bb 05fc 44bd d646 413d
00000350: 8290 2e3d 8561 2ebe 2941 633e 8961 e2bc
00000360: ceea bcbe ec0a 89bd ab87 2cbe 2e26 2dbd
00000370: 8a36 823d f524 1fbe 5d79 8c3e d47b 293e
00000380: 53e0 49bd 7dc2 683e c229 45be 4a18 efbd
00000390: 48a1 43bd a448 373d c8a6 473e 0aac 83bd
000003a0: 7ea8 d6bd a76e 0c3e c82a ca3d 1891 49be
000003b0: 33d0 403d d25b 6bbd aa27 92be c61b 003e
000003c0: cb49 27be 9833 2e3e fe5b 16bd b712 ba3d
000003d0: b90d 03bd 1273 ea3d c12f 49be 3910 10be
000003e0: 7bf8 973e bbb2 d5bc 4134 903e 4fce 35be
000003f0: faac bebd c986 60bd c5d9 09be 15d7 cb3d

fc2.bias f4 [10]
0.011103091 0.04245448 -0.045095287 0.08992779 -0.034814294 0.059087753 -0.034528352 0.06745498
-0.052906066 -0.041096527
00000000: bde9 353c c0e4 2d3d d6b5 38bd 102c b83d
00000010: 6f99 0ebd 0006 723d 9a6d 0dbd d625 8a3d
00000020: 08b4 58bd d554 28bd
