ckpt/mnist/sgd/weights.pt (torch, 319519 bytes, 4 tensors)

fc1.weight f4 [100, 784]
0	0xbcfe53b3	-0.03104577
1	0x3cc45c22	0.023969714
2	0x3c255cea	0.010092953
3	0x3bb869ea	0.0056278603
4	0xbb971253	-0.0046103387
5	0x3bf66017	0.007518779
6	0x3c919369	0.017770486
7	0x3c9c51bb	0.01908194
8	0x3c0aa861	0.008462996
9	0xbd11507e	-0.035477154
10	0x3acd1c48	0.0015648687
11	0xbc299492	-0.010350363
12	0xbbe38269	-0.0069430363
13	0xbc35c89b	-0.011095191
14	0x3ce3147c	0.027719729
15	0x3d05b6f8	0.032645196
16	0xbbaa8605	-0.0052039647
17	0x3c8f3e4b	0.017485758
18	0x3c7fc371	0.015610562
19	0x3c29cd21	0.010363848
20	0xbc6d1465	-0.0144701945
21	0xbc04e247	-0.008110589
22	0xbbbca44e	-0.0057568913
23	0xbcb63e2c	-0.022246443
24	0xb8bc8f6b	-8.991252e-05
25	0xbc10ab24	-0.008829866
26	0xbc943e0c	-0.018095993
27	0xbb9ecec5	-0.004846426
28	0xbc037539	-0.0080235535
29	0x3c2956a6	0.0103356
30	0xbd054886	-0.032539867
31	0xbce8aff8	-0.028404221
32	0xbd0ea988	-0.034829646
33	0x3a414e1a	0.0007374004
34	0xbcb0a23c	-0.021561734
35	0x3c2dcab1	0.010607407
36	0x3d0a11b9	0.033708308
37	0x3b1d5e9a	0.0024012686
38	0x3b519df6	0.0031985021
39	0x3d0091b9	0.031388972
40	0xbbe26d3f	-0.006909996
41	0x3d0b1b7a	0.03396175
42	0xbcf573ed	-0.029962504
43	0x3d05e84c	0.03269224
44	0xbd118521	-0.035527352
45	0x3b049edc	0.002023629
46	0x3c35d375	0.011097779
47	0x3b7c99d9	0.0038543849
48	0xbcf0f3c1	-0.029413106
49	0x3cf82903	0.030292993
50	0xbcdda7b8	-0.027057514
51	0x3b9124b3	0.0044294237
52	0x3c615f1d	0.013755587
53	0x3c95341b	0.018213322
54	0x3cd6a930	0.026203722
55	0xbc37f56e	-0.011227949
56	0x3adea958	0.0016987724
57	0x3c26a993	0.010172266
58	0xbb8daddc	-0.004323704
59	0xbb13fb9b	-0.0022580388
60	0xbce6bd30	-0.028166384
61	0xbc981bb3	-0.018567896
62	0xbc88265d	-0.016619856
63	0x3cc36069	0.023849683
64	0xbc756251	-0.014977054
65	0x3cc86568	0.024462417
66	0xbcb67255	-0.022271315
67	0xbcc4e875	-0.024036625
68	0xbc92cb72	-0.017919276
69	0xbcd160c6	-0.02555884
70	0x3c825a5a	0.015912224
71	0xbc830cb1	-0.015997263
72	0xbbbd75ff	-0.0057818885
73	0xbc9c4cd0	-0.019079596
74	0x3ca92d15	0.02065138
75	0x3c7cf20f	0.015438571
76	0xb99f470a	-0.00030379771
77	0xbc498d25	-0.012301718
78	0xbbd7ef67	-0.0065898183
79	0xbb2a2ba4	-0.0025965953
80	0x3bc8343a	0.0061097415
81	0x3c5e2b9d	0.013560203
82	0x3c266633	0.010156202
83	0xbccce013	-0.02500919
84	0x3cf4df2c	0.029891573
85	0xbbfae1f3	-0.00765633
86	0xbcf98a43	-0.030461436
87	0x3b7fde33	0.0039042353
88	0xbd10305f	-0.03520238
89	0x3c52efae	0.012874527
90	0xbca32396	-0.01991443
91	0xbc246089	-0.010032781
92	0x3ceab989	0.028652923
93	0xbce746b4	-0.028231956
94	0x3cd47c25	0.025938103
95	0x3ce9de7b	0.02854847
96	0xbc8e0725	-0.017337391
97	0xbbe0fef7	-0.0068663317
98	0xbbde19a5	-0.0067779594
99	0xbd0ad2f8	-0.0338926
100	0xbc5b1e47	-0.013373918
101	0x3ca247a2	0.019809548
102	0xbc60322e	-0.013683839
103	0xbcdd0a19	-0.026982354
104	0xbd082e44	-0.033247247
105	0xbd076402	-0.03305436
106	0x3c65775e	0.01400551
107	0x3c4aa5e1	0.01236865
108	0xbd09023e	-0.033449404
109	0x3ccb4a95	0.024815837
110	0xbce156ff	-0.027507303
111	0x3c4633a6	0.012097275
112	0xbc1e40f7	-0.0096590435
113	0xbc44383b	-0.011976297
114	0x3c39ecb4	0.011347938
115	0xbd012956	-0.03153356
116	0x3af48d15	0.0018657768
117	0xbcb89d34	-0.022535898
118	0x3c9aac2e	0.01888093
119	0xbc316f5d	-0.010829774
120	0xbc37794f	-0.011198356
121	0x3d100a8f	0.03516632
122	0xbd096a78	-0.033548802
123	0x3c3d1963	0.011541697
124	0xbca37e26	-0.019957613
125	0x38e5fb1c	0.00010966344
126	0x3cd1197e	0.025524851
127	0x3b23adee	0.0024975496
128	0xbb252829	-0.002520094
129	0xbcedfe52	-0.029051933
130	0xbce0660b	-0.027392408
131	0x3ccc0315	0.024903813
132	0x3ac56226	0.0015059158
133	0x3c5f53fc	0.013630863
134	0xbbe4eb9e	-0.0069860956
135	0xbd09bfa8	-0.033630043
136	0x3c43904b	0.011936258
137	0x3b3977fe	0.002830028
138	0xbd05a121	-0.032624368
139	0xbd0821b3	-0.033235263
140	0x3c19a1a1	0.009376914
141	0xbbbaaf7c	-0.005697189
142	0xbc2daeef	-0.010600789
143	0xbcde4b6a	-0.02713557
144	0xbcaaceb1	-0.020850511
145	0xbccee3ad	-0.025255049
146	0xbd0368fd	-0.032082547
147	0x3999ef31	0.00029360646
148	0xbc372bcb	-0.011179875
149	0x3ad5f4d4	0.0016323575
150	0xbd0015a2	-0.03127063
151	0x3c825b36	0.015912633
152	0xbc60d683	-0.013723019
153	0xbc22dc96	-0.009940287
154	0x3cf541f8	0.029938683
155	0x3cd9220b	0.02650549
156	0xbccb670d	-0.024829412
157	0xbd047861	-0.032341365
158	0x3cf1a6f0	0.029498547
159	0x3c02b132	0.007976817
160	0xbcf48d82	-0.029852632
161	0xbc8a847f	-0.016908882
162	0xbc967372	-0.018365595
163	0xbb18df7e	-0.002332657
164	0x3cd7737e	0.026300188
165	0xbbf1f53f	-0.007383972
166	0xbcb398e3	-0.021923488
167	0x3c78a67c	0.015176412
168	0xbc470705	-0.01214767
169	0xbc9964b3	-0.018724775
170	0x3ae59e3e	0.0017518473
171	0xbb515953	-0.003194411
172	0xbc95c531	-0.018282505
173	0x3d0870c1	0.033310656
174	0x3c8df49c	0.017328553
175	0xbc91a644	-0.017779477
176	0xbcae6835	-0.021289924
177	0x3c94bf1f	0.01815754
178	0xbc81ee31	-0.015860649
179	0x3cdd96ab	0.027049383
180	0x3c3c67e8	0.011499383
181	0xbca86dc9	-0.020560162
182	0x3c50f8be	0.012754617
183	0xbc5c9457	-0.013463101
184	0x3c80f36f	0.015741078
185	0xbad95223	-0.0016580265
186	0xbc5bc73a	-0.0134141985
187	0xbc49966e	-0.012303932
188	0xbca68aef	-0.02032992
189	0x3c417e97	0.0118099665
190	0xbc10ddb8	-0.008841924
191	0x3bf1ba32	0.0073769325
192	0x3c1cb56f	0.0095647415
193	0x3ce27013	0.027641332
194	0x3c7d17bd	0.015447554
195	0x39c09c08	0.00036737346
196	0xbc90fe0c	-0.017699264
197	0xbc9dfeb1	-0.019286485
198	0xbcb9729d	-0.02263766
199	0x3d0b0bb2	0.0339467
200	0x3c2dddb6	0.010611942
201	0xb7c8896c	-2.390585e-05
202	0x3b9e31d6	0.0048277183
203	0x3d09f591	0.033681456
204	0x3cd7d5de	0.026347097
205	0xbcd7b758	-0.026332542
206	0x3ce9515d	0.02848118
207	0x3b9f44a6	0.0048604785
208	0x3cd0ae3c	0.025473706
209	0x3cc9eec7	0.02464999
210	0x3cae1103	0.021248346
211	0xbc54760c	-0.012967598
212	0xbc354125	-0.011062895
213	0x3ce02008	0.027359024
214	0xbabf651d	-0.0014602278
215	0xbcda0caa	-0.026617367
216	0xbcf8db13	-0.0303779
217	0xbb6d6719	-0.003622478
218	0xbcc1a19b	-0.02363663
219	0xbd14758e	-0.03624492
220	0xbc944761	-0.018100442
221	0x3ca2ff53	0.019897139
222	0xbb84cf07	-0.004053
223	0xbc9c1241	-0.019051673
224	0xbc803512	-0.015650306
225	0xb9b9684d	-0.0003536366
226	0xbce8d923	-0.028423851
227	0xbcd714a3	-0.026254958
228	0xbb505238	-0.0031787287
229	0x3ce994d6	0.028513353
230	0xbc11da3c	-0.008902129
231	0xbc11bad0	-0.008894637
232	0xbcb5fbc6	-0.022214781
233	0x3ce2b438	0.027673826
234	0xbcf0904c	-0.029365681
235	0xbd022cfc	-0.03178118
236	0x3b67b9f0	0.003535863
237	0xbca69a96	-0.020337384
238	0xbc141b6b	-0.00903974
239	0x3a9f3ba6	0.0012148514
240	0x3ceb33f5	0.028711298
241	0xbc8c19d5	-0.017102161
242	0xbcf80c0c	-0.030279182
243	0x3c36fde3	0.01116893
244	0xbd03219b	-0.03201447
245	0x3bae8c26	0.0053267656
246	0xbc92b34b	-0.01790776
247	0xbc709eef	-0.01468633
248	0xbcfb496e	-0.030674662
249	0xbcf89145	-0.030342707
250	0xbce8bba1	-0.028409781
251	0xbd0856c2	-0.033285864
252	0x3c6dd86a	0.014516929
253	0x3ca4b070	0.020103663
254	0x3c221623	0.009892973
255	0x3d0b7bd6	0.034053646

fc1.bias f4 [100]
0	0x3c424507	0.011857278
1	0x3c474b2d	0.012163919
2	0x3c1c6c93	0.0095473705
3	0x3cf7ebdf	0.03026384
4	0x3c849e91	0.016188892
5	0x38f4e7a9	0.00011677977
6	0x38486d22	4.7785354e-05
7	0x3cbcec52	0.023061905
8	0x3c601725	0.013677393
9	0x3bd92ea6	0.0066278754
10	0x3b580b56	0.003296574
11	0x3cb5a525	0.022173474
12	0xbc48cc9f	-0.012255817
13	0xbc410c12	-0.011782663
14	0x3c9bad4a	0.01900353
15	0xbccaf2e5	-0.024774024
16	0xbc22c6c0	-0.009935081
17	0x3afb069b	0.0019151749
18	0x3cbe1ccd	0.023207093
19	0xbd11ac4c	-0.035564706
20	0xbd13ef44	-0.036116853
21	0xbc3f7c98	-0.01168742
22	0xbb0906b0	-0.0020908527
23	0x3b4db219	0.0031386672
24	0x3a70f82f	0.00091922557
25	0xbc9fa05d	-0.019485647
26	0xbcd7a345	-0.02632297
27	0x3bad5f13	0.0052908747
28	0x3af75c26	0.0018872067
29	0x3b3e0afd	0.0028998249
30	0x3c21ac06	0.009867674
31	0xbc0618d8	-0.008184634
32	0x3cba8c4e	0.02277198
33	0x3c88ac0f	0.016683606
34	0x3c7f7c94	0.015593667
35	0x3c57358b	0.013135324
36	0xbc817697	-0.015803618
37	0xbc78a09d	-0.015175012
38	0x3ba55779	0.005045828
39	0x3b8f613d	0.0043756054
40	0x3bec387c	0.007208882
41	0x3b9fdb54	0.004878441
42	0x3ca2a383	0.01985336
43	0xbaca32f5	-0.0015426563
44	0x3c279467	0.010228253
45	0x3d1698ea	0.036766924
46	0x3d1cbe3f	0.03826737
47	0xbc21dc46	-0.009879177
48	0x3c98ef39	0.018668758
49	0xbc14ce17	-0.009082339
50	0x3cc78000	0.024353027
51	0x3bf0a5ac	0.0073439684
52	0xbcc6f060	-0.024284542
53	0x3d101d7a	0.03518436
54	0x3c3c513f	0.01149398
55	0x3bb716d5	0.0055874386
56	0x3ad281c9	0.0016060408
57	0x3ced79fd	0.028988833
58	0x3cd49288	0.025948778
59	0xbc631d5b	-0.013861979
60	0xbbb88aed	-0.0056317956
61	0x3ba92156	0.0051614447
62	0xbc82b6e0	-0.015956342
63	0xbd03dd00	-0.032193184
64	0x3d039dc0	0.032132864
65	0x3b894427	0.0041890326
66	0xbcec3c5e	-0.028837379
67	0x3d08cc5a	0.03339801
68	0xbb3f4726	-0.0029186695
69	0xbcefb96a	-0.029263217
70	0x3c5da6d2	0.013528543
71	0xbc3bb9a1	-0.011457832
72	0x3cbcba53	0.023038065
73	0xbc7ce2e5	-0.015434955
74	0xbcecf9b5	-0.028927663
75	0x3d0fdd09	0.035122905
76	0x3cfac506	0.030611526
77	0xbc3789e6	-0.011202311
78	0xbce27abb	-0.027646413
79	0xbcdfd8fa	-0.027325142
80	0xbc21e943	-0.009882274
81	0x3cf40bc8	0.029790774
82	0x3cd0d146	0.025490414
83	0x3d0af997	0.033929434
84	0x3d181c95	0.037136633
85	0xbd063f3c	-0.03277515
86	0xbcfac376	-0.030610781
87	0x3bdf1ad1	0.0068086167
88	0xbcc0f0c3	-0.023552304
89	0x3af48fc3	0.0018658567
90	0x3cf5e426	0.030016016
91	0xbccc7e79	-0.02496265
92	0x3d1299ab	0.03579108
93	0xbc782ba5	-0.015147124
94	0x3cde1e93	0.027114188
95	0x3becbfaa	0.0072249966
96	0x3d089f77	0.033355203
97	0x3d09ca3e	0.03364014
98	0x3cce13d5	0.025155941
99	0x3d173d3d	0.036923636

fc2.weight f4 [10, 100]
0	0xbd93d9b0	-0.07219255
1	0x3d93b943	0.0721307
2	0x3b5c72be	0.0033637728
3	0xbd57571f	-0.05257332
4	0xbd514bbe	-0.051097624
5	0x3dbdbce9	0.092645474
6	0x3bd6d548	0.006556187
7	0xbd27226e	-0.04080432
8	0xbd958278	-0.073002756
9	0x3d203985	0.039117355
10	0x3bc817f2	0.00610637
11	0x3deb4465	0.114876546
12	0xbdad07e9	-0.08448774
13	0xbc9809aa	-0.018559296
14	0xbd82a838	-0.063797414
15	0x3d5f2e3b	0.05448745
16	0x3d6506b3	0.055914592
17	0xbca66128	-0.02031
18	0xbdc2e788	-0.09516817
19	0xbd535b3e	-0.051600687
20	0x3dd05cc9	0.10173947
21	0xbd9d3571	-0.07676209
22	0xbd8cd523	-0.0687659
23	0xbdc62d6c	-0.09676632
24	0xbd3ca2c1	-0.04605365
25	0xbdd9ce4d	-0.10635052
26	0xbdaadbef	-0.0834273
27	0xbd150df6	-0.036390267
28	0xbc14b3bd	-0.009076056
29	0x3e12e3df	0.14344738
30	0xbd84d237	-0.06485408
31	0xbd40695a	-0.04697547
32	0xbd39d3dd	-0.045368064
33	0xbbe40b6f	-0.006959371
34	0xbd35d16c	-0.044389173
35	0xbda8a9ef	-0.08235537
36	0x3d0921f2	0.03347964
37	0xbda52c5e	-0.08065103
38	0xbca31ec3	-0.01991213
39	0x3d35f6bf	0.04442477
40	0xbdce1816	-0.10063188
41	0xbbb204aa	-0.005432685
42	0xbce891bf	-0.02838981
43	0x3dc29b2b	0.09502252
44	0xbaa5a5aa	-0.0012637873
45	0xbcbc412b	-0.022980293
46	0x3d26565f	0.040609714
47	0x3cefeda5	0.029288122
48	0x3dbffb77	0.09374135
49	0xbd58622e	-0.052828006
50	0x3d49826e	0.049196653
51	0xbdbf6bb5	-0.09346715
52	0x3c419c3c	0.011817034
53	0x3ccac66d	0.02475282
54	0xbdc2c8f4	-0.09510985
55	0xbb8395d6	-0.0040156646
56	0xbaa534e8	-0.0012604268
57	0x3d61535b	0.055011135
58	0x3d676af0	0.056498468
59	0x3d71a23c	0.05899261
60	0xbc75dafe	-0.015005825
61	0x3dae8f02	0.0852337
62	0x3d54c354	0.051944092
63	0xbdd8216e	-0.10553251
64	0xbdd6e8a0	-0.104935884
65	0xbd773825	-0.060356278
66	0x3c856a38	0.016286
67	0x3dfc8cb5	0.12331525
68	0x3da36f42	0.07980205
69	0xbd885ce6	-0.06658344
70	0x3da56e58	0.08077687
71	0x3dbb1ca2	0.09136321
72	0x3ccd9f76	0.025100451
73	0xbd0cdeef	-0.034392294
74	0xba67a735	-0.00088368665
75	0xbd6ca63e	-0.05777573
76	0xbd654ebc	-0.05598329
77	0x3cba2a12	0.022725139
78	0x3d0741dc	0.033021793
79	0x3dbe22d1	0.092839845
80	0x3daf2539	0.085520215
81	0xbdbc3093	-0.09188952
82	0x3c6c3e36	0.014419129
83	0xbce3f383	-0.027826076
84	0xbd7e37d5	-0.062064964
85	0xbd525e22	-0.051359303
86	0x3c89bb77	0.016813023
87	0x3cb0e14e	0.021591809
88	0xbdc1d807	-0.09465032
89	0xbde7d9c7	-0.113208346
90	0x3db48fab	0.08816465
91	0x3d9ec767	0.07752877
92	0xbd9288fa	-0.071550325
93	0x3d589bcd	0.05288296
94	0x3b9b0922	0.0047313133
95	0x3cf3797f	0.02972102
96	0x3c869be6	0.01643176
97	0x3dcda537	0.10041278
98	0x3df21f0f	0.1182233
99	0x3d3d36d1	0.046194855
100	0x3ddeab49	0.10872514
101	0xbd60484c	-0.054756448
102	0x3e22f088	0.15912068
103	0xbd3ca042	-0.04605127
104	0x3d9bf537	0.076151304
105	0xbd63887b	-0.05555008
106	0x3c2ecb72	0.010668622
107	0x3c9aa3d2	0.018876944
108	0xbcd82416	-0.026384395
109	0x3da01663	0.0781677
110	0xbd8562a1	-0.065129526
111	0x3a203b34	0.00061123376
112	0xbdccc913	-0.09999289
113	0x3dc4c6f0	0.09608257
114	0x3d1cb13a	0.038254954
115	0xbd2396ac	-0.039938614
116	0xbd7f3604	-0.062307373
117	0x3c9366da	0.01799338
118	0x3c930124	0.01794488
119	0x3d9b74c2	0.07590629
120	0x3d9e16ec	0.07719216
121	0x3dcc0621	0.099621065
122	0x3b1d52cb	0.0024005647
123	0x3e23e3b0	0.16004825
124	0xbd160f84	-0.03663589
125	0x3d3da088	0.046295673
126	0x3db4bd29	0.08825142
127	0xbdb603d0	-0.08887446
128	0x3de15104	0.11001781
129	0xbcc16097	-0.023605628
130	0xbd21e4ef	-0.03952497
131	0x3dd54d40	0.10415125
132	0x3c7c2830	0.015390441
133	0x3d27d79d	0.04097711
134	0x3b9ed9ab	0.0048477254
135	0xbda259d2	-0.07927288
136	0xbdf4d876	-0.11955349
137	0xbd577e67	-0.05261078
138	0x3d187b3a	0.037226893
139	0x3c89a694	0.016803063
140	0x3df12b5d	0.11775849
141	0x3dcf6cb8	0.10128158
142	0x3d100000	0.03515625
143	0x3d9d1eaa	0.07671864
144	0x3bf805c1	0.0075690453
145	0xbd5fdf32	-0.054656215
146	0xbdc3174b	-0.09525927
147	0x3d82c6bc	0.06385562
148	0xbdc15b35	-0.094412245
149	0xbdb11a2e	-0.086475715
150	0x3cf6c5a1	0.030123534
151	0x3cb780a3	0.022400206
152	0xbd4a0de8	-0.04932967
153	0xbd473c39	-0.048641417
154	0xbace1f46	-0.0015725873
155	0xbdd3c3d3	-0.10340085
156	0x3d726c50	0.059185326
157	0xbdb79491	-0.08963884
158	0xbd83cd41	-0.064356335
159	0x3d9710ff	0.073762886
160	0x3df73ad4	0.120717674
161	0xbdc30ee8	-0.095243275
162	0xbddcce1f	-0.10781502
163	0x3dc3155e	0.0952556
164	0x3da36795	0.07978741
165	0xbd7d7a44	-0.06188418
166	0x3db7a295	0.08966557
167	0xbb7b6101	-0.003835738
168	0xbdaf8788	-0.085707724
169	0x3cb9fc13	0.022703206
170	0xbdcc1dc9	-0.099666186
171	0x3dbbbd6b	0.09166988
172	0x3cb1733b	0.021661391
173	0xbdf0678f	-0.11738502
174	0x3d47d45e	0.048786514
175	0xbd52d4b5	-0.051472384
176	0x3d2a2c92	0.04154641
177	0x3d3b4d7a	0.045728184
178	0x3cadd5c1	0.02122009
179	0x3cfc234d	0.030778551
180	0x3c5cdb53	0.013480025
181	0xbd998d7c	-0.07497689
182	0xbd80ac86	-0.06282906
183	0x3c8b9f8e	0.017043855
184	0xbd9bcda5	-0.07607583
185	0xbca2fcb6	-0.019895893
186	0x3d98ba74	0.07457438
187	0xbcf09b1d	-0.029370839
188	0xbb7ad361	-0.0038272964
189	0xbd61ddfc	-0.05514334
190	0x3c762c5e	0.015025226
191	0x3d590103	0.05297948
192	0xbd51e1c8	-0.051240712
193	0x3ccb22c8	0.024796858
194	0xbc5127f6	-0.012765875
195	0x3c773221	0.015087635
196	0x3d3069d5	0.04306968
197	0x3c4621fd	0.012093064
198	0x3d9ccaa8	0.07655841
199	0xbdefd80e	-0.11711131
200	0x3dbed81a	0.09318562
201	0xbc6f82a4	-0.0146185495
202	0x3b85016a	0.0040590065
203	0x3c370095	0.011169572
204	0x3d41b21a	0.04728899
205	0xbd51b61c	-0.051199064
206	0xbc7efc1c	-0.015563037
207	0xbd477bb2	-0.04870195
208	0x3d631802	0.055442818
209	0x3d905428	0.070473015
210	0xbcd64941	-0.026157977
211	0x3de2eb87	0.110800795
212	0xbddd8437	-0.108162336
213	0xbc6c78a7	-0.014433063
214	0xbd85c1b2	-0.06531085
215	0x3cc2218a	0.023697633
216	0xbd9a95d1	-0.075481065
217	0xbcb0cd67	-0.021582318
218	0x3d736800	0.059425354
219	0xbd60e88b	-0.05490927
220	0x3d75a8c8	0.059975415
221	0x3cf51a70	0.029919833
222	0xbdb447c8	-0.08802754
223	0x3d83de12	0.06438841
224	0xbdc61ead	-0.0967382
225	0x3d9f79d8	0.07786912
226	0xbd87d733	-0.06632843
227	0xbd45832d	-0.048220802
228	0x3d871a17	0.06596773
229	0xbd9d7d35	-0.07689897
230	0xbc9a3754	-0.01882521
231	0xbd11738f	-0.035510596
232	0xbd0399ee	-0.03212922
233	0x3dfcc135	0.12341539
234	0xbba5b636	-0.0050571216
235	0x3c4dae35	0.012553741
236	0xbc29028d	-0.01031555
237	0x3dee192b	0.11625894
238	0xbd2c5de8	-0.042081743
239	0xbd39fb67	-0.04540577
240	0xbdefa52a	-0.117014244
241	0x3dc8e05a	0.09808417
242	0x3dc087c1	0.09400893
243	0x3c90b4fb	0.017664423
244	0x3db3df5d	0.087828375
245	0xbc8a6f3c	-0.016898744
246	0x3d7fb822	0.062431462
247	0xbda9339f	-0.08261799
248	0x3ab74b00	0.0013984144
249	0xbd9e2ba5	-0.07723168
250	0xbce01f04	-0.02735854
251	0xbc5b88d4	-0.013399322
252	0x3dac39a0	0.084094286
253	0x3d6e9872	0.058250852
254	0xbd40cdb0	-0.04707116
255	0x3d611e70	0.054960668

fc2.bias f4 [10]
0	0x3d78674e	0.060645394
1	0x3c1ad302	0.009449722
2	0xbbc05767	-0.005869794
3	0xbd42dfd1	-0.04757673
4	0x3d221b0a	0.039576568
5	0xbd891514	-0.066934735
6	0xbd9807ad	-0.07423339
7	0xbc99e316	-0.01878504
8	0x3d0378c6	0.0320976
9	0x3d8a795c	0.06761429
