ckpt/fashion-mnist/sgd/weights.pt (torch, 319519 bytes, 4 tensors)

fc1.weight f4 [100, 784]
-0.012372699 0.00079542684 0.012749776 0.009570148 0.03436809 -0.03283584 0.026925385 0.030437997
-0.0047979364 -0.003308332 -0.03923814 0.020930734 -0.014568932 -0.023803335 0.025451884 -0.017043777
0.003812845 -0.025889387 0.022001928 -0.036526367 0.022650672 -0.007261033 -0.00405339 0.015355791
0.012344528 -0.006273834 -0.01568047 0.020001013 -0.019653304 -0.014150193 0.011204703 -0.031027976
0.034740295 0.02276484 -0.02458643 -0.003355526 0.0032675557 0.0040796283 -0.008632713 0.011276948
0.022201605 0.019802773 -0.017772313 0.0016013361 0.022734802 -0.013006454 -0.024627093 -0.034782812
0.030820956 -0.0039733197 -0.032424875 -0.013163817 0.0099466685 6.846811e-05 0.033147495 -0.017002035
-0.029266559 0.0050976602 -0.017414734 -0.0134892585 -0.003212236 -0.008067015 -0.032767158 -0.022271708
-0.024287948 0.02335017 0.03227213 -0.0328914 0.017268592 0.024829991 -0.034321748 0.017093088
-0.022563923 0.02344094 0.026931524 0.018082203 -0.009982327 -0.0024646975 0.02414687 0.028731748
0.023854055 -0.018276934 -0.025318924 -0.016421247 0.03497478 0.02799105 -0.020759946 0.027582992
0.010912408 -0.019791273 -0.028983764 -0.0071672075 -0.022750264 -0.005310429 -0.004889339 0.0050557195
-0.028406208 -0.028895618 0.019788349 -0.025012529 0.026094588 -0.03019149 -0.027306143 -0.0016689365
0.0055534015 -0.0234113 0.010090751 -0.020559475 0.026716134 0.026395498 0.026411971 -0.027170075
0.027554791 -0.026657682 -0.029654937 -0.024860179 -0.0065425606 0.02721399 0.02154514 -0.0036623224
0.017756978 -0.017338127 0.026142599 0.0016320257 -0.012786279 -0.016449194 0.029073147 -0.016873809
0.029850444 -0.029416857 0.011121992 -0.0032379397 -0.033601087 -0.016497234 0.0060463436 -0.010796465
0.014170308 -0.032378234 -0.0022031146 0.024937326 0.008999911 0.008480851 0.034477014 0.0091701355
0.013710779 0.004782479 0.014477497 0.004098002 0.018212782 0.030815244 -0.006295821 0.025533855
-0.030853203 -0.03742546 0.017990615 0.0035229686 0.0032655243 0.027613167 0.019983338 -0.0022431207
0.027524851 -0.023313094 0.023515167 -0.0051038745 -0.037098497 -0.027931483 0.027702486 0.021063238
-0.008116969 0.03460923 -0.022174748 -0.0076934607 0.020078268 -0.03855142 -0.004446967 0.032545637
-0.012626354 -0.035982568 0.0061297077 -0.009928893 -0.025448175 -0.019373966 0.0067830235 0.00040239314
-0.019766085 -0.016504055 -0.0390437 0.010304265 -0.031880725 -0.03886209 -0.0041577443 -0.019646931
-0.03946506 -0.0034141 -0.038982403 -0.013407915 0.0285634 -0.018500281 0.035426486 -0.004477785
-0.037110176 0.011893305 -0.0014642334 0.023853742 -0.02777169 -0.02770621 0.014334789 -0.025307931
0.01645406 -0.011770097 0.011130372 -0.012945521 -0.025082635 -0.04424187 -0.016345868 -0.028647913
-0.039320245 0.017256 0.00034936634 -0.027343588 -0.040833898 -0.021058913 0.004843435 0.024777345
-0.03360481 -0.029288486 -0.01907606 0.013390043 -0.007740537 0.003046158 -0.034347598 -0.026105702
-0.030131593 0.008256297 0.025187578 -0.009235681 0.016046207 -0.01741645 0.01613373 -0.023465807
-0.014126046 -0.03984614 -0.022947786 -0.025402352 0.015957654 0.013092046 -0.0047395537 -0.047638692
-0.04307915 0.0054603405 -0.035379823 -0.033305537 0.026260735 0.025816208 -0.019576008 -0.0043545435
00000000: dcb6 4abc 3184 503a 70e4 503c 1ccc 1c3c
00000010: 8ec5 0c3d e07e 06bd a092 dc3c 1b59 f93c
00000020: 0238 9dbb 9ad0 58bb 2cb8 20bd ee76 ab3c
00000030: 88b2 6ebc 36ff c2bc 7880 d03c 649f 8bbc
00000040: ede0 793b fb15 d4bc 633d b43c ac9c 15bd
00000050: e78d b93c f6ed edbb 4dd2 84bb db96 7b3c
00000060: b440 4a3c bc94 cdbb 5474 80bc 2ad9 a33c
00000070: f7ff a0bc 36d6 67bc ee93 373c 622e febc
00000080: d74b 0e3d 547d ba3c 7b69 c9bc 62e8 5bbb
00000090: 7d24 563b 67ae 853b 3970 0dbc f3c2 383c
000000a0: 24e0 b53c 6d39 a23c 3e97 91bc ece3 d13a
000000b0: 563e ba3c 0619 55bc c2be c9bc 6c78 0ebd
000000c0: 3b7c fc3c 9f32 82bb f2cf 04bd 0dad 57bc
000000d0: 5af7 223c 8996 8f38 abc5 073d da47 8bbc
000000e0: 6cc0 efbc 460a a73b 58a9 8ebc 0d02 5dbc
000000f0: 6184 52bb 832b 04bc db36 06bd 2873 b6bc
00000100: 85f7 c6bc db48 bf3c c82f 043d 22b9 06bd
00000110: dd76 8d3c 4468 cb3c f694 0cbd ce06 8c3c
00000120: fad7 b8bc 3707 c03c 809f dc3c 2121 943c
00000130: ea8c 23bc c386 21bb a8cf c53c d85e eb3c
00000140: 9469 c33c 82b9 95bc a269 cfbc da85 86bc
00000150: b741 0f3d 7d4d e53c c310 aabc baf5 e13c
00000160: f5c9 323c 4f21 a2bc 5c6f edbc e5da eabb
00000170: c35e babc 1b03 aebb c036 a0bb 73aa a53b
00000180: 23b4 e8bc 81b6 ecbc 2d1b a23c 13e7 ccbc
00000190: 51c4 d53c 2554 f7bc 22b1 dfbc 37c0 daba
000001a0: 4ff9 b53b 0ec9 bfbc ad53 253c 586c a8bc
000001b0: cbdb da3c 5f3b d83c eb5d d83c c793 debc
000001c0: 96ba e13c 3661 dabc e9ee f2bc 93a7 cbbc
000001d0: fa62 d6bb e0ef de3c 6f7f b03c 9303 70bb
000001e0: 1577 913c b008 8ebc 0129 d63c b2e9 d53a
000001f0: 8b7d 51bc 76c0 86bc cf2a ee3c f13a 8abc
00000200: eb88 f43c 9ffb f0bc 0439 363c 9d33 54bb
00000210: 4ba1 09bd 3525 87bc 6820 c63b a8e3 30bc
00000220: 942a 683c 0a9f 04bd 2162 10bb 5d49 cc3c
00000230: 5d74 133c 44f3 0a3c c537 0d3d 563e 163c
00000240: 2da3 603c 57b6 9c3b 0633 6d3c 8848 863b
00000250: f932 953c 4070 fc3c 2d4d cebb 602c d13c
00000260: dbbf fcbc 704b 19bd 0e61 933c 9be1 663b
00000270: 6802 563b 0235 e23c 19b4 a33c 5201 13bb
00000280: cc7b e13c 1afb bebc e1a2 c03c 673e a7bb
00000290: 98f4 17bd 91d0 e4bc 53f0 e23c d08c ac3c
000002a0: 09fd 04bc 68c2 0d3d d1a7 b5bc 6d19 fcbb
000002b0: 2e7b a43c 18e8 1dbd ddb7 91bb 934e 053d
000002c0: c4de 4ebc 7562 13bd b7db c83b ccac 22bc
000002d0: b178 d0bc 27b6 9ebc 2044 de3b 4bf8 d239
000002e0: 7cec a1bc 8333 87bc 49ec 1fbd 38d3 283c
000002f0: 5d95 02bd db2d 1fbd b03d 88bb 9af2 a0bc
00000300: 1da6 21bd 18bf 5fbb 03ac 1fbd dfac 5bbc
00000310: cbfd e93c e78d 97bc 5d1b 113d 62ba 92bb
00000320: d700 18bd 23dc 423c 85eb bfba ec68 c33c
00000330: 7581 e3bc 22f8 e2bc 76dc 6a3c 9452 cfbc
00000340: aaca 863c 5dd7 40bc 2a5c 363c 7319 54bc
00000350: 197a cdbc f736 35bd c5e7 85bc 07af eabc
00000360: 440e 21bd 745c 8d3c 282b b739 a9ff dfbc
00000370: 7241 27bd be83 acbc adb5 9e3b dcf9 ca3c
00000380: 32a5 09bd 68ee efbc 6645 9cbc e961 5b3c
00000390: 55a4 fdbb 0da2 473b 11b0 0cbd a0db d5bc
000003a0: 88d6 f6bc 6b45 073c 2e56 ce3c 4151 17bc
000003b0: 5673 833c f1ac 8ebc e22a 843c 5d3b c0bc
000003c0: ee70 67bc b535 23bd fffc bbbc 9818 d0bc
000003d0: a0b9 823c 0580 563c 424e 9bbb ca20 43bd
000003e0: c373 30bd a8ec b23b 6fea 10bd 636b 08bd
000003f0: c120 d73c 837c d33c dd5d a0bc 8fb0 8ebb

fc1.bias f4 [100]
0.004957087 0.05989796 -0.005009979 0.018625243 0.00061179424 0.039033752 0.007186493 0.09118044
0.007858955 0.055551093 -0.00647743 0.019324021 -0.0004553938 -0.027392987 0.016574493 -0.017436277
0.039738245 -0.019952685 0.014027534 0.0023435997 0.016115416 -0.007282155 0.010671262 0.026036274
0.03646218 -0.02689661 -0.012818031 0.03518809 -0.019296056 -0.009035542 0.063513845 -0.010445626
-0.023214623 -0.0019964278 0.0048759626 0.018572047 -0.0077688694 0.016987232 -0.005496675 0.024179446
-0.00028922988 -0.0029844965 0.0019015016 0.055855423 0.020948015 0.01315632 -0.00058455276 0.01201275
-0.034478284 0.0124053 0.006197796 -0.003421891 -0.03197752 -0.028422708 -0.024483556 -0.04771693
0.034824327 0.026224956 -0.019017216 -0.032075487 -0.0067743897 0.018724581 -0.009318353 0.032810744
0.021427767 0.016884038 0.033387028 0.025832154 0.01351194 -0.011573182 -0.036215186 0.05235228
-0.011354125 0.026435267 -0.0037554505 0.0062657194 0.08407463 0.0057301214 0.04023487 0.030618133
0.005245513 -0.034617506 0.03679126 0.019533979 -0.015325527 -0.027889118 0.004637095 -0.0041709966
-0.012001766 -0.0013248206 0.0048661423 -0.00839069 0.02466982 0.03145515 -0.026253821 -0.0028470613
-0.026211502 -0.044349324 0.029939907 -0.014311633
00000000: 0f6f a23b 9057 753d c02a a4bb f793 983c
00000010: d160 203a dbe1 1f3d ac7c eb3b cfbc ba3d
00000020: d9c2 003c 8b89 633d 9f40 d4bb 694d 9e3c
00000030: ecc1 eeb9 4267 e0bc 3bc7 873c 86d6 8ebc
00000040: 92c4 223d d073 a3bc bed3 653c 1497 193b
00000050: 7a04 843c 259f eebb 84d6 2e3c 064a d53c
00000060: 5e59 153d 4856 dcbc b802 52bc 6321 103d
00000070: c312 9ebc cf09 14bc 8c13 823d 2224 2bbc
00000080: 982c bebc 80d6 02bb 8ac6 9f3b 6824 983c
00000090: 0092 febb cf28 8b3c 741d b4bb f913 c63c
000000a0: c7a3 97b9 8b97 43bb ce3b f93a a8c8 643d
000000b0: 2c9b ab3c 9b8d 573c ac3c 19ba 20d1 443c
000000c0: 1a39 0dbd 993f 4b3c e216 cb3b ce41 60bb
000000d0: dcfa 02bd bdd6 e8bc bd91 c8bc d472 43bd
000000e0: f4a3 0e3d b8d5 d63c fec9 9bbc 9661 03bd
000000f0: b3fb ddbb 4b64 993c 01ac 18bc 8f64 063d
00000100: 4989 af3c 6550 8a3c d6c0 083d f49d d33c
00000110: 2f61 5d3c 729d 3dbc 6056 14bd 586f 563d
00000120: a706 3abc c68e d83c 011e 76bb aa50 cd3b
00000130: 522f ac3d bec3 bb3b 52cd 243d e1d2 fa3c
00000140: 8de2 ab3b 16cb 0dbd 6fb2 163d b905 a03c
00000150: eb17 7bbc b877 e4bc c6f2 973b dbac 88bb
00000160: 0ea3 44bc 9aa5 adba 2974 9f3b 1b79 09bc
00000170: 5d18 ca3c 1ed7 003d 4112 d7bc c395 3abb
00000180: 81b9 d6bc a3a7 35bd 8944 f53c 577b 6abc

fc2.weight f4 [10, 100]
-0.06627613 -0.015074798 0.14994761 -0.0510397 0.078425065 -0.18171582 -0.012076561 -0.025285654
-0.12537014 -0.12937681 -0.08794112 0.0985105 -0.17083138 0.1822974 -0.004349053 0.0022645474
0.021296903 -0.01834088 -0.049818262 0.03860126 -0.09820343 0.07876623 0.056508075 -0.07695835
-0.17427784 -0.12599392 -0.07220177 -0.1096274 0.13730606 -0.094365865 -0.12214273 0.036878623
0.017278738 0.03498418 0.0836637 0.06265491 -0.08235226 0.1945962 -0.009697907 0.02334594
-0.12758586 -0.038709797 -0.037759174 -0.13859966 -0.049522813 -0.08553602 0.22392379 0.030470904
-0.015619011 0.08839027 -0.14071189 -0.10068731 0.196335 0.072927445 0.04803846 -0.13747448
0.059587356 0.023091003 0.15990312 0.010038101 0.09027073 0.05693401 -0.16684994 0.03665596
0.011123177 0.039557666 -0.15278982 -0.18000165 -0.15770675 0.067813456 0.053797573 -0.11442507
0.040594835 0.04972337 -0.14437513 -0.12487278 0.002567982 -0.036358252 0.010863051 -0.08612373
-0.045806173 0.0059591867 0.20356932 0.20484124 -0.06707344 -0.061865382 -0.018592628 0.21235587
-0.20741722 0.15180275 0.068140596 -0.11871046 0.0039596306 0.1291069 0.124170706 0.061907068
-0.08689595 0.16136941 0.065650485 -0.06976345 0.06975082 -0.103669636 0.05232729 0.020978972
0.2150335 -0.0035200915 -0.11204021 -0.1603526 -0.13866487 0.10789421 0.07200396 0.10362721
0.06377459 0.12460255 -0.15332721 0.16908897 0.0032819973 -0.0546417 -0.18824387 -0.029740082
0.18593362 0.01592996 0.017955353 0.08896351 0.09483572 0.038491324 -0.079046294 0.19087651
0.13950804 0.22227865 0.0676324 -0.014493044 0.056211792 -0.006872444 -0.016665693 -0.012982446
0.0024951086 0.116033286 0.058566146 -0.013713114 0.048185296 0.05400491 -0.07799091 -0.10451053
0.037811335 0.003420454 -0.06675252 0.017723281 -0.27607474 -0.085663185 0.09497944 0.12374334
-0.1777276 0.0940331 0.01129856 -0.064402565 -0.08250395 0.035599902 -0.30532584 -0.0494523
0.041890103 0.20745826 -0.22417395 0.07387671 -0.08695635 0.11798633 -0.07373766 -0.1413341
-0.17723209 -0.039519478 -0.03074706 -0.10382979 -0.0264522 0.0040843477 0.1612787 -0.012173746
-0.041978784 -0.08130712 0.12712742 -0.06918986 0.05456839 -0.022712834 0.07127676 -0.22180335
0.06263535 0.007301385 -0.12971142 0.1159822 0.102806404 0.16388184 -0.025692813 -0.093529336
-0.27008018 -0.1718105 0.05567643 0.0916792 -0.04956472 -0.1805453 0.17290846 0.17840874
-0.06742368 -0.14582105 -0.029771194 -0.05604911 -0.11038297 -0.17819737 0.015328355 0.09289793
0.050438423 -0.16940005 0.08838837 0.0040913704 -0.066090085 -0.10105432 0.15105951 0.020348983
-0.04810247 0.028527873 -0.032941446 -0.042910147 -0.12579255 0.0244535 0.01340359 -0.015612483
-0.15131433 -0.14635085 -0.034908317 -0.06241777 0.15987387 0.055414796 -0.05217087 -0.031664018
-0.022951879 0.040350184 -0.004784058 0.0068933717 0.046143074 0.12531711 -0.082221344 0.056581907
-0.14803328 0.03145494 0.046415083 0.1401896 -0.026230015 0.097437814 -0.19765122 -0.0835378
0.11812946 0.06987813 0.022838183 0.047560617 -0.04451242 -0.01960409 0.03303325 0.14357798
00000000: c8bb 87bd 49fc 76bc de8b 193e 010f 51bd
00000010: 529d a03d b613 3abe c5dc 45bc dc23 cfbc
00000020: 0861 00be 5b7b 04be 791a b4bd dfbf c93d
00000030: 6cee 2ebe 2bac 3a3e 8082 8ebb cd68 143b
00000040: d876 ae3c 9d3f 96bc 3c0e 4cbd 5b1c 1e3d
00000050: e11e c9bd 3050 a13d 0375 673d 579c 9dbd
00000060: e475 32be 8d04 01be 86de 93bd 5584 e0bd
00000070: f699 0c3e e442 c1bd f825 fabd 0a0e 173d
00000080: 248c 8d3c 924b 0f3d e057 ab3d 3851 803d
00000090: 4da8 a8bd 3a44 473e f8e3 1ebc fc3f bf3c
000000a0: dea5 02be 2a8e 1ebd 5da9 1abd 12ed 0dbe
000000b0: 6fd8 4abd 822d afbd 474c 653e 1e9e f93c
000000c0: e1e6 7fbc f505 b53d c716 10be 2635 cebd
000000d0: 0b0c 493e fc5a 953d fac3 443d 1cc6 0cbe
000000e0: df11 743d 5829 bd3c a5bd 233e d976 243c
000000f0: dcdf b83d a333 693d b6da 2abe 8f24 163d
00000100: fc3d 363c 3807 223d ef74 1cbe 5a52 38be
00000110: e17d 21be c8e1 8a3d d85a 5c3d b157 eabd
00000120: c546 263d bbaa 4b3d 13d7 13be 4dbd ffbd
00000130: 974b 283b 64ec 14bd f0fa 313c a361 b0bd
00000140: 419f 3bbd 4845 c33b 7a74 503e e7c1 513e
00000150: cd5d 89bd 8e66 7dbd 914f 98bc d173 593e
00000160: 2e65 54be 2e72 1b3e 4c8d 8b3d 781e f3bd
00000170: cabf 813b 9934 043e 364d fe3d 4492 7d3d
00000180: 81f6 b1bd 063e 253e c373 863d 24e0 8ebd
00000190: 85d9 8e3d bf50 d4bd 2455 563d 18dc ab3c
000001a0: be31 5c3e 56b1 66bb 5675 e5bd 7933 24be
000001b0: 2afe 0dbe a4f7 dc3d d076 933d 813a d43d
000001c0: 419c 823d 9f2f ff3d cf01 1dbe a925 2d3e
000001d0: c716 573b facf 5fbd 00c3 40be 79a1 f3bc
000001e0: 6265 3e3e 8c7f 823c 1b17 933c 8032 b63d
000001f0: 3b39 c23d 14a9 1d3d 06e3 a1bd 2275 433e
00000200: 32db 0e3e 049d 633e db82 8a3d 3b74 6dbc
00000210: 563e 663d 3d32 e1bb 7e86 88bc 53b4 54bc
00000220: fa84 233b dca2 ed3d 0ee3 6f3d f8ac 60bc
00000230: f25d 453d 4134 5d3d b3b9 9fbd 9e09 d6bd
00000240: 0fe0 1a3d b229 603b 8cb5 88bd 6a30 913c
00000250: ab59 8dbe 2e70 afbd 9584 c23d 266d fd3d
00000260: 39fe 35be 6d94 c03d 981d 393c 7ee5 83bd
00000270: d5f7 a8bd 34d1 113d ab53 9cbe 7f8e 4abd
00000280: f594 2b3d f06f 543e db8d 65be ac4c 973d
00000290: 2c16 b2bd d1a2 f13d c503 97bd e3b9 10be
000002a0: 547c 35be 2ddf 21bd 42e1 fbbc b7a4 d4bd
000002b0: 49b2 d8bc fed5 853b 3e26 253e 6474 47bc
000002c0: f2f1 2bbd 5984 a6bd b12d 023e 6ab3 8dbd
000002d0: 1b83 5f3d 4410 babc 8df9 913d 6b20 63be
000002e0: f646 803d 7540 ef3b 12d3 04be 1388 ed3d
000002f0: 2a8c d23d a4d0 273e bc79 d2bc 4f8c bfbd
00000300: f347 8abe 17ef 2fbe f80c 643d 4ec2 bb3d
00000310: 6004 4bbd dee0 38be ea0e 313e c8b0 363e
00000320: 6d15 8abd 1d52 15be b8e2 f3bc c093 65bd
00000330: 7710 e2bd 5f79 36be c823 7b3c 4541 be3d
00000340: 8598 4e3d 3577 2dbe f604 b53d e710 863b
00000350: 3d5a 87bd 91f5 cebd 58af 1a3e e9b2 a63c
00000360: 1807 45bd 49b3 e93c 9ced 06bd 8dc2 2fbd
00000370: c3cf 00be b552 c83c bb9a 5b3c 80cb 7fbc
00000380: 25f2 1abe ffdc 15be 06fc 0ebd c7a9 7fbd
00000390: fab5 233e a0fa 623d 1fb1 55bd 21b2 01bd
000003a0: 9405 bcbc 3c46 253d 96c3 9cbb cbe1 e13b
000003b0: 8500 3d3d 2153 003e aa63 a8bd 6ec2 673d
000003c0: 0996 17be e5d6 003d be1d 3e3d dd8d 0f3e
000003d0: 54e0 d6bc 7a8d c73d 1565 4abe de15 abbd
000003e0: dced f13d 441c 8f3d 2417 bb3c ecce 423d
000003f0: a852 36bd c298 a0bc e04d 073d 1b06 133e

fc2.bias f4 [10]
0.07280957 -0.092597604 -0.11810344 0.06856158 -0.13711865 0.2542313 0.06864861 -0.034278072
-0.14229295 -0.1615751
00000000: 2f1d 953d d0a3 bdbd 37e0 f1bd 036a 8c3d
00000010: d568 0cbe 9b2a 823e a497 8c3d 2a67 0cbd
00000020: 3eb5 11be f173 25be
