ckpt/fashion-mnist/sgd/weights.pt (torch, 319519 bytes, 4 tensors)

fc1.weight f4 [100, 784]
00000000: 0a60 433c 8e73 c03c 6cd4 fcbc acb2 ba3c
00000010: 146c d8bc 567d e1bc e3f0 883c b153 67bc
00000020: 6815 283b 9393 fe3c a33f bc3c 2aa0 c4b9
00000030: 8c13 c0bc 914b ac3b 5b83 a93b 4a3d e03c
00000040: 659b 963c c50a aabc 729d 953b c24d b13c
00000050: f0d6 8dbc 4091 0f3c aec3 5e3c f077 6bba
00000060: 3036 25bc f700 b4bc 5c46 f23b 0819 0abd
00000070: 9ca5 4a3c f0a5 80bc 0aa8 b03c 5a2f c6bc
00000080: 3ce7 1fbc 2a8f e93c 7ad0 31bc fdef cdbc
00000090: fc00 e83c 0d24 1abc a5eb dbbc 1caf a5bc
000000a0: faab 963c 6ef6 7f3c 0f5d 5bbc 46a7 8fbc
000000b0: 3d67 0cbd c197 283a 9a10 723b bcdf 8fbc
000000c0: 74c1 e73c 0f26 fc3b 9886 0a3b 0bf1 0e3d
000000d0: c8f0 09bc 028d 0fbd d55f e73c b493 043d
000000e0: d750 0bbd 6c72 b2bc fff0 07bd 206a f9bc
000000f0: f964 71bc 4774 5d3c 1f96 15bc 8a29 d63c
00000100: a931 e43c 54cd 07bc 9901 0bbc cf4b ae3b
00000110: 3945 e73c f106 adbc 152b 84ba d61f a5bc
00000120: 80d0 d23c 5787 03bd 2cb2 313b 455c 753b
00000130: a1fc d83c 2037 f33c e7eb 05bd b6c1 acbb
00000140: 0824 d43c 8167 ea3a 72e5 f63c a8ec e83b
00000150: 5bc8 fd3c d7b4 143c b3c7 10bd bc19 91bc
00000160: 487c dcbb 6957 01bd e074 a13c 2a7f 2fbc
00000170: 791b 03bb a88c 91bc 7052 d53a b002 343c
00000180: 63f4 95bc 926a 4fbc b85f 423b 66b2 3c3c
00000190: a2d8 8d3c 2466 8abc 0aab 353c 530c 5e3c
000001a0: fc6c 12bd 9320 053d 9a95 2ebb 5177 2dbc
000001b0: 55b8 70bb b6c3 ad3c 1799 d23b ad56 acbc
000001c0: 773a d6bc 9bdb 033d ac61 153c 76f7 02bd
000001d0: 2605 953a 9209 02bc 2e84 73bc d37a 0dbd
000001e0: 3264 f2bc 832c eb3b f93f f3bc 60b0 5c3b
000001f0: 9a47 58bc a4b6 3e3b 07dd 02bd fd94 363c
00000200: 6708 0b3c 518d 8d3c 820a dabb 8e18 0cbc
00000210: 3f09 ecbc bd7d fd3c aff3 3e3c 59c4 bebc
00000220: a110 813c b7a1 f63a 7e3c d6bc c6f2 b6bc
00000230: 64c5 933c 2176 c13c d191 3bbc 760a 0dbd
00000240: 1d08 de3c b46f 033d fd78 2d3c cdbd d9bb
00000250: 8962 b43c 6936 b8ba bdb1 ddbb f854 8a3c
00000260: f191 40bc 9d08 0c3d 3f59 a03b eb3f efbc
00000270: faf7 303c e95f b0bb b3ed 78bc 4512 22bc
00000280: 9ee7 f33c 8f18 f43c 8f14 d93b 3ea6 a23c
00000290: 7aed cc3c 8bd6 7f3c fe3d 9abb 401b 193c
000002a0: 62df ebbb 74f4 0fbd fb60 8cbc 4e67 0fbd
000002b0: 5ce7 263c df1d 0b3d 3820 02bd 72d9 afbc
000002c0: 6d80 f1bc 9d3f 303a 2570 6fbc 2a55 353a
000002d0: 1949 7c3b ca75 d63c a945 5bbc d785 ba3c
000002e0: e61d 01bb 3be3 07bd a627 533c e9d8 05bc
000002f0: b84c 1e3c 4dc9 cd3c 970d d9bc 2453 ce3b
00000300: 7190 b63c a210 a0bc 01a7 5e3c 4fe4 ed3c
00000310: ea5e 2c3c 114c 5ebc 686d 39ba d6ed dabc
00000320: ff67 02bd beda 103d 8949 a0bc 86f7 34bc
00000330: 46c4 55bb 5467 dbbc 8d06 05bd 87a7 ed3c
00000340: 47ed 03bd ebf0 c73b 12ae 8fbc c9cb dfbc
00000350: 6638 b4bc 3635 953c 3980 93bc 5873 2ebc
00000360: b646 09bd 0ac1 33bc 0a6e a83c 1eb1 debc
00000370: fc6b 033c 0cd5 e1bc f4c8 d8bc 6aff f1bc
00000380: facb 4ebc 1722 c4bc 861c b9ba cfdb cb3c
00000390: 55dc 42bc 2d30 5c3c 1313 18bb bdda 053d
000003a0: 3532 04bd 458b 0b3a 9801 80bc 57ba 2c3b
000003b0: d772 253c 442d 0a3d 3062 dabc 01d0 bb3c
000003c0: f04a f5bc b39e d93c 168c ba3c 9a2e b3bc
000003d0: 25b9 bdbb 7b83 ef3c 4d47 c4bc 6d2e e9bc
000003e0: 63a2 88bc 5222 82bc 524a 763c 1131 c0bc
000003f0: 07f9 c63c 2151 b33b 3f41 e73c 3df7 7d3c
0.011924753 0.0234926 -0.03086301 0.022790276 -0.026418723 -0.027525585 0.016716426 -0.014119075
0.0025647525 0.031076228 0.022979563 -0.00037503365 -0.02344682 0.0052580317 0.0051731295 0.027372975
0.018384645 -0.020757088 0.004565888 0.021643523 -0.017314404 0.008762658 0.013596458 -0.00089824107
-0.01008372 -0.021973116 0.0073936414 -0.033715278 0.012368586 -0.015704125 0.021564502 -0.0241925
-0.00975972 0.028510649 -0.010852927 -0.02513885 0.028320782 -0.009408009 -0.026845763 -0.0202251
0.018392552 0.015622718 -0.013388886 -0.017535817 -0.034278143 0.00064313045 0.0036936165 -0.01756274
0.028290488 0.0076949666 0.0021137353 0.034897845 -0.008419223 -0.035046585 0.028243938 0.032367423
-0.03401264 -0.021783076 -0.033188816 -0.030446112 -0.014733546 0.013516492 -0.00913003 0.026142854
0.027855711 -0.0082887 -0.008484268 0.0053190957 0.02823125 -0.021121474 -0.001008364 -0.020156782
0.025734186 -0.032111492 0.0027114255 0.003743903 0.02648765 0.029689372 -0.032695677 -0.0052721156
0.025896087 0.001788363 0.030138705 0.0071082897 0.030979326 0.009076319 -0.035346698 -0.017712466
-0.0067286827 -0.0315775 0.01970905 -0.010711471 -0.0020005389 -0.017767265 0.0016275179 0.010986969
-0.01830501 -0.012659686 0.0029659104 0.011517143 0.017315213 -0.016894408 0.011088142 0.013552743
-0.035748467 0.03250177 -0.0026639462 -0.010587529 -0.0036730964 0.021211486 0.006426941 -0.021037424
-0.026150925 0.032191854 0.009117525 -0.03197428 0.0011369332 -0.007936852 -0.014863057 -0.034540962
-0.029588792 0.007176937 -0.02969359 0.0033674464 -0.013200665 0.0029100562 -0.03194907 0.01114392
0.00848589 0.017279299 -0.0066540847 -0.008550776 -0.028813003 0.030943746 0.011654778 -0.023286985
0.015755 0.0018816505 -0.026151892 -0.02233256 0.01803846 0.023615899 -0.01144834 -0.034433804
0.027103478 0.03208895 0.010587928 -0.0066449405 0.022019641 -0.0014054301 -0.006765573 0.01688622
-0.011753545 0.0341879 0.0048934515 -0.029205283 0.01080131 -0.005382527 -0.015193391 -0.009892051
0.02977353 0.029796867 0.006624765 0.019854661 0.025015581 0.015615116 -0.004707097 0.009344876
-0.00719826 -0.035145238 -0.017136088 -0.03501063 0.010186996 0.033964034 -0.031769007 -0.02146599
-0.029480183 0.00067233463 -0.01461414 0.00069172925 0.0038495718 0.026179213 -0.0133833075 0.022768898
-0.0019701659 -0.03317569 0.012887871 -0.008169391 0.009661846 0.025120402 -0.026495738 0.006296532
0.022285672 -0.019539181 0.0135896215 0.02903953 0.010520676 -0.01356794 -0.0007073493 -0.026724737
-0.03183746 0.03536486 -0.019566314 -0.011045342 -0.0032618209 -0.02678267 -0.03247695 0.029010547
-0.032208707 0.0061017177 -0.017539058 -0.027318852 -0.02199955 0.01821385 -0.018005477 -0.010647617
-0.0335147 -0.010971317 0.020560283 -0.027184065 0.008021351 -0.027567409 -0.02646301 -0.029540736
-0.012621874 -0.023942037 -0.001412288 0.024885086 -0.011893352 0.01343922 -0.0023204728 0.03267931
-0.032274444 0.0005323182 -0.01562576 0.0026356184 0.010098181 0.033734575 -0.026658148 0.022926332
-0.02994296 0.026564931 0.022771876 -0.021872807 -0.005789893 0.0292375 -0.02395978 -0.02846452
-0.016678995 -0.015885506 0.015032368 -0.023460897 0.024288667 0.005472318 0.028229354 0.015500841

fc1.bias f4 [100]
00000000: 23c2 ca3c 919a 82bc d709 2dbe d0d4 f7bc
00000010: afd0 09be 1ee7 3bbd 5188 16be 5740 c53c
00000020: 6c69 61bd 7901 ef3d b523 a2bd 7815 b73d
00000030: e7f8 563d 2e4b 0ebd ea45 c83d f79c 1e3d
00000040: 962b 33bd 2080 e6bc 7ff6 8e3d c8ca 0a3b
00000050: 5f7a a33d 0bda 92bc 909b 1dbd 7259 4e3d
00000060: aa73 c83c 482b 31be 7ff8 27ba d26e 033e
00000070: 386b ba3e b80d 40be 9dd0 463e cc46 9d3c
00000080: 9325 c9bd 6ba8 10bd 2be6 4b3e c3c8 7f3d
00000090: 99ec 993d 1ed8 1ebd a583 3cbd fdad 1e3e
000000a0: b46e cbbd 8284 ab3d ae40 acbc 35e2 5ebd
000000b0: 95f5 a03d b5d1 623d a40d 21bc ba11 833e
000000c0: c1ac 003e 161a cb3d 6486 c0bd 6238 373c
000000d0: 84d7 803d 053b d4bd 19de 213d 63d6 ae3c
000000e0: 0de9 733e ff8d 4bbd 3632 fcbb 1350 953d
000000f0: d74e 0abe 8dcd f8bc fd97 e13c 9878 2ebe
00000100: e428 bbbd 1564 c33d c5e5 163e e2a3 e53d
00000110: a431 cc3d 47c7 10bd a2e6 fb3d 4970 b7bd
00000120: af48 843d 2727 cd3d ea2e 5fbe a77e 22be
00000130: 43f2 f43b db8f 303e 05f0 513e abe3 0b3d
00000140: 66c8 b83d 82d2 383c 587c 4fbc dee7 03bb
00000150: 4bff 0e3d f41a 0f3d 9e82 e73d d9b3 643e
00000160: 7fd2 6b3c 167d 223d d62c 383d 14ee 7bbc
00000170: 5b7a 683e ee9f 2dbc 8734 b23e ed97 863d
00000180: 5777 05bd b789 8d3d a036 e3bc 00a6 903d
0.024750775 -0.015942844 -0.16898285 -0.030252844 -0.13458513 -0.045874707 -0.14700438 0.024078531
-0.05503218 0.11670203 -0.07916967 0.08939642 0.052483466 -0.034739666 0.0977896 0.038723912
-0.04374274 -0.028137267 0.06980609 0.0021177996 0.07982325 -0.017926237 -0.038478434 0.05037827
0.024469215 -0.17301667 -0.0006407573 0.12835243 0.36409926 -0.18755233 0.19415517 0.019198798
-0.0982162 -0.035316866 0.19912021 0.06244732 0.075158305 -0.038780324 -0.046023984 0.15496059
-0.09933224 0.08374883 -0.021026935 -0.054414947 0.07859341 0.055375773 -0.009829912 0.25599462
0.125659 0.09917085 -0.09400633 0.011182876 0.06291106 -0.103628196 0.03951845 0.021342462
0.2381937 -0.049695965 -0.0076964153 0.072906636 -0.13506638 -0.030371452 0.027538294 -0.1703819
-0.09138659 0.095405735 0.14736088 0.11212899 0.09970406 -0.035346296 0.12299849 -0.089569636
0.06459176 0.10017233 -0.2179524 -0.15868627 0.007475169 0.17242377 0.20501716 0.034152668
0.09022598 0.011280658 -0.012663923 -0.0020127217 0.034911435 0.034937814 0.1130421 0.22334231
0.014393448 0.039670072 0.044964634 -0.0153765865 0.22702925 -0.010597212 0.348057 0.06571946
-0.032584514 0.06911033 -0.027736008 0.07062912

fc2.weight f4 [10, 100]
00000000: 8c56 ae3c 6f4c 783d e883 67bd 8a13 65bd
00000010: a79f 313d 8a10 d4bd 249a d23d 21c8 773e
00000020: e340 963e 0d61 99bd 10ea a2be d3bf 023e
00000030: 8fce 693d 37b2 d6bb 11c1 523d 2274 35be
00000040: 310e 0a3c c639 5cbe 5df1 4f3e 41b7 3c3c
00000050: efdd 9f3e c383 c7bd efda abbd 86e0 463d
00000060: da5a 1e3d 21cc 5ebe 1977 a0bd 2d39 823e
00000070: 74d4 99bd 7bbd 1bbe f79f 1dbe c711 2abd
00000080: 968a 193e 1b27 3dbe 6daf b1bd cd5a 623d
00000090: 7a7f 583d 78ac 933c 10d7 83be cde6 bfbb
000000a0: e062 3bbe c289 47bc 4ddb a83d 7cd0 63be
000000b0: d464 2bbe bf7a 733e 023c 62bd 92c5 673e
000000c0: 4161 ac3d 9f84 1a3e e993 a43d 9d4b 923e
000000d0: 92ee 2cbe 14c7 8cbd b0fc 77be 17cf 0c3e
000000e0: cf17 2fbc 80cb c2bd 853b 59bd 018a 243d
000000f0: 989f 53bd a355 153d 6d42 7b3d 6456 2a3e
00000100: 16d2 e13d 4243 35be 73f4 713c 6de0 28be
00000110: e7e0 a73d e4bb 27bb bc15 09bd a340 853e
00000120: e011 04be cf12 823d 9c16 b8bd f0af 403e
00000130: e3fe a33d 95c1 703e 40e9 42bc 63fc 28bd
00000140: 0b35 053e 1abe d6bd beb5 753d b4bb adbd
00000150: f213 a83d 4e12 b6bd ea99 383d f507 593e
00000160: d236 cfbe 6c37 a5be ceee 3a3c 9381 553c
00000170: 427b 423e 3e56 86bd fc95 123e e620 be3d
00000180: 3644 77be e04e 94bc fab1 0a3d 908c 643e
00000190: b31e bebc 90a7 58bd 04c9 fc3d 0bdd 33be
000001a0: 956a 12be 87a4 66bd 2d43 033c 04ef 183e
000001b0: 897d 26be 7991 783e 3b54 ba3e 3c62 48bd
000001c0: 2fcf 183d e16c 483e e84e d1bd 914c a53d
000001d0: 0de6 de3e 44c0 80be f038 87be 6fa8 9b3d
000001e0: 704f b1bc 600f 5f3d 35e8 40bc 33f9 0ebe
000001f0: 537d 86be e6f1 b53e a71f 183e 6307 a4bc
00000200: 30dc eabd caa6 6ebe 0fb8 64be 0e9e 6bbd
00000210: b3e9 843e 9439 b6bd b671 3e3d d7ee ee3d
00000220: 6d8b 45bd 6a38 4c3e afc2 cbbd d132 9b3d
00000230: fb08 9ebe 74be 11be 4477 b9bc 4994 2fbe
00000240: 4ce4 433e 60db 26be 7bc5 183d c498 8dbe
00000250: 58bf 23bd 093a 253e 3616 d33e 894f 7abc
00000260: dd46 1abe 29cf 353d f5be adbd 4e0c 1dbd
00000270: 1471 d3bd 5c2a 5ebd e44b 96bc 96f5 62be
00000280: 5b0f 0b3e 5e1b ce3c 554e 22bd 1b0b b83e
00000290: 4202 7bbd fde1 043d 8356 33be dc6b 65be
000002a0: 0661 c13d fa40 5f3d 5c63 02be 7229 37be
000002b0: 023a 803e 3e64 17be 6e58 673e 12b1 cabd
000002c0: bf97 ea3b cd4d 973e 6ba2 1bbe 1e38 a4bd
000002d0: a51d e43c 3928 96bc 7428 c73c 7aaa 403d
000002e0: f3df 41bd 26f4 a5bd caf7 b73e 9a36 82be
000002f0: fee9 2fbe bb38 c3bd ef4e 0eba 2ea9 6f3e
00000300: 3bbf aabe f687 88bc dd49 58bd 8228 bdbe
00000310: 87cc 9e3e 994d 993d e401 5fbd 40a9 5c3e
00000320: 6b19 7b3c b72b 0d3d dabb df3b 1275 0b3e
00000330: 07b8 2abe 4146 08bd e59d 7c3d f73f 033d
00000340: 08e9 0b3e 8ac8 363e 47b4 253e 9312 73be
00000350: d672 06bb 1f6e 383d f038 28be e7b1 43be
00000360: 86c1 993d 00ed 06be 469d 263e bcae b8bb
00000370: cca6 613e 1a62 ccba 8544 c1bd 388e 283e
00000380: 1db3 e2bd 3f29 0c3e 2e1c 973d efc1 c73d
00000390: e76d 23be 33b6 e8bd ab16 1fbe 23ad f83b
000003a0: 7617 a53e 7b3b 003d f384 043c e16a cf3c
000003b0: 4b8b adbc 9040 8b3d bef5 9dbd fa4e 84be
000003c0: beda 673e c280 c1bd 6a51 9b3d b41a 4fbd
000003d0: 009e 213e 6ac1 273e 9a39 c03d 3789 a53e
000003e0: 83ce 9bbb 2f10 563e dec9 59be a82c f93d
000003f0: 2df8 67be 66a2 223d eabc 30be 1fb5 8f3d
0.021281503 0.060619768 -0.05652228 -0.055926837 0.043365147 -0.10354717 0.10283306 0.24197437
0.2934638 -0.07489214 -0.318192 0.12768488 0.057081755 -0.0065520066 0.051453654 -0.17720082
0.008426235 -0.21506414 0.20306917 0.0115183005 0.3122401 -0.097419284 -0.08391368 0.048553966
0.03866086 -0.21757556 -0.07835216 0.25434247 -0.07511225 -0.15209 -0.15393053 -0.04152086
0.14994273 -0.18471949 -0.08676038 0.055262376 0.052855946 0.018026575 -0.25750017 -0.005856371
-0.18299437 -0.01217884 0.08244953 -0.22247499 -0.16737682 0.23777293 -0.05523301 0.22633961
0.08416987 0.15089653 0.08036024 0.28573313 -0.16887882 -0.06873909 -0.24217486 0.13750874
-0.010686829 -0.09511471 -0.053035278 0.040170673 -0.051665872 0.036458623 0.061342645 0.16634518
0.11026399 -0.17701438 0.014767754 -0.16491862 0.081971936 -0.002559417 -0.033467993 0.26025876
-0.12897444 0.06351244 -0.089886874 0.18817115 0.080076 0.23511346 -0.011896431 -0.04125632
0.13008516 -0.10485478 0.059987776 -0.08483067 0.08206929 -0.0889021 0.04506866 0.21194442
-0.40471512 -0.32268846 0.011409475 0.013031381 0.18992332 -0.06559418 0.14315027 0.09283619
-0.24147114 -0.018104017 0.033861138 0.22319245 -0.023207998 -0.052894175 0.12343028 -0.1756479
-0.1429847 -0.05630925 0.008011621 0.14934927 -0.16258825 0.24274243 0.36392388 -0.04892181
0.03730696 0.19572784 -0.10220128 0.080712445 0.4353489 -0.25146687 -0.26410627 0.076004855
-0.021644324 0.054458022 -0.0117741125 -0.1396225 -0.2626749 0.35536116 0.14855824 -0.020023054
-0.11467779 -0.23305812 -0.22335838 -0.05752378 0.25959548 -0.08897701 0.046495162 0.11666649
-0.04822867 0.19943395 -0.09949242 0.07578052 -0.30866227 -0.14232808 -0.022639878 -0.1714641
0.19130057 -0.16294622 0.037297707 -0.27655613 -0.0399774 0.1613542 0.41227883 -0.015277752
-0.15066095 0.044387016 -0.08483688 -0.038341813 -0.10324302 -0.054239616 -0.018346734 -0.22163996
0.13580076 0.025159534 -0.039625484 0.35945973 -0.06128145 0.03244208 -0.1751347 -0.22404426
0.09442334 0.054505326 -0.12733215 -0.17886904 0.25044256 -0.14784333 0.22592327 -0.09897055
0.007159203 0.29551545 -0.15198676 -0.08018516 0.027846167 -0.018329727 0.024311282 0.04703758
-0.047332715 -0.08103208 0.35931236 -0.25432283 -0.17179105 -0.09532305 -0.0005428632 0.2340438
-0.33349022 -0.016666394 -0.052804817 -0.36944968 0.31015417 0.07485504 -0.054445162 0.21548939
0.015325884 0.034465518 0.0068278136 0.13618878 -0.16671763 -0.033270124 0.061674017 0.032043424
0.13663113 0.17849937 0.16182052 -0.23737554 -0.0020515225 0.045026895 -0.1642797 -0.19110833
0.07507615 -0.13176346 0.16270933 -0.0056360643 0.22036284 -0.0015593201 -0.09436897 0.16460502
-0.110693194 0.13687609 0.07378422 0.09753787 -0.15959893 -0.11362877 -0.15535991 0.007588999
0.32244462 0.031306725 0.008088338 0.025319519 -0.021184584 0.06799424 -0.07712887 -0.25841504
0.22642037 -0.09448387 0.07583888 -0.050562575 0.15782928 0.16382375 0.093859866 0.3233125
-0.0047548427 0.20904611 -0.21268412 0.12166721 -0.22653265 0.039705656 -0.17259565 0.07016968

fc2.bias f4 [10]
00000000: 113b ea3d 09af 0ebe 31c7 23bd 4331 e23d
00000010: 2eff b1be 5fc8 363f e4c8 803e e728 aabd
00000020: 6857 32be 37a9 e5be
0.11437047 -0.13933958 -0.039984886 0.11044552 -0.34765 0.7139949 0.25153267 -0.08308583
-0.17416155 -0.44855663
