ckpt/fashion-mnist/sgd/weights.pt (torch, 319519 bytes, 4 tensors)

fc1.weight f4 [100, 784]
00000000: f78d 7bbb 0d58 cfbc ca2d bbbc 8ee7 7d3c
00000010: d22a fabc 2882 61bd 4867 bfbc 2b3b 09bd
00000020: 6b9f 78bd 04b7 82bb fb35 30be 86e7 80bd
00000030: a10d 263d 8d48 fcbc ffb8 d43d a3f8 553d
00000040: 001d b33c 74fc f4bd 5c8c bcbd 5e4c dcbd
00000050: 3ce4 3abd a5d3 9ebd 7ca9 82bd ef97 e0bc
00000060: dc7c 43bc ec4b eabc 5c52 05bd 8498 d1bb
00000070: bdec fcbc 3681 b4bb c9fc b63c d78c adbc
00000080: 7814 0e3d 0c6a c43c 9535 a33b d490 18bb
00000090: d0e6 743b c3b5 b4bd dfd4 77bd 1226 6c3c
000000a0: c76c 183c 696f 2c3d 9be1 8dbb cce4 e83d
000000b0: 5acf 81bc 2301 f2bb e291 a7bd f14f 1cbe
000000c0: 8fbd 14bd 8fa1 9ebc 817d 0ebd 3634 7d3b
000000d0: a54d 483d 38b8 a43c cb26 ee3c ad0a c9bc
000000e0: 0b9f 023d 5a43 c53b 9da5 e1bc 71af 243b
000000f0: e667 be3c b68d df3c fc53 36bc dad6 203c
00000100: bf70 7e3c d3f0 b0bd c9c8 513d 5eb3 893c
00000110: e89d 8a3d 51b0 763d 3f3d 14bd 0faa ac3d
00000120: 93a0 fabc 2cf2 433d 3190 3fbd 05f5 8bbd
00000130: 95cc 94bd 570f dcbb 9374 2d3d 74a4 963d
00000140: 5d7c ea3c dedd 973c 5190 47bc 7b56 bc3b
00000150: 2bbf ad3c e84c 1a3c 42b6 503d 72a1 0e3d
00000160: cbad feb7 66fd babc 463e 913d abfe 393c
00000170: 58ab 57bc 2e8a 413c b146 4ebc f077 0fbd
00000180: 9cf6 673d be62 fabb 929d 5fbd a49a 793c
00000190: 2bc8 553d 03fc 05bc e04a 443c 2ff7 86b9
000001a0: a5dd 00bd e989 343d f839 16bd 5b7f cf3c
000001b0: e4a2 233d 1066 7e3d 0a90 df3c 1ed8 ce3b
000001c0: bfea 343c 94a2 36bc d44e 39bc 69f9 01bb
000001d0: 938f 46bc 1b16 8a3c 2e41 3e3d 1af0 1fbd
000001e0: 3524 113c 046c b43d 764a d039 c59d 55bc
000001f0: f6e7 163d 2cff ab3c 2311 d9bc b44a b43c
00000200: 7a8a be3d 04f6 af3c 5d62 b43d 5773 163c
00000210: cda3 42bd dd4e 353c bec1 d53c c77b bdbb
00000220: 99ad 153c 8ffb c8ba a194 bdbb b99e eabb
00000230: 5b7c 003b 454c 563d 5701 e4bc f378 86bc
00000240: 7073 c23d 3579 febc 83a6 793c 3d09 b1bd
00000250: e074 59bd 0495 7fbd f2cb 5bbd d34e 82bd
00000260: 2485 303c 11cc 403d 0200 1cbd 1b5c 043c
00000270: 5369 843d 7ca1 c63d 9b48 a53c 6c86 8d3c
00000280: 99cd 04be 9cec 8ebd 3566 67bd 04ec 90bc
00000290: 63cd 233b e1d0 073d 5011 5c37 8209 a73c
000002a0: 5096 8abc 8459 ff3c 584d fa3c afd2 123d
000002b0: 5404 bc3c ef93 a93c dccc 443d 595c dd3c
000002c0: 459f b53c 3f73 aabb 95be 823d 0a28 b53c
000002d0: fd33 d1bb 2022 d83c 5a59 04bd 78b5 f7bc
000002e0: 48b4 b73c 2573 0f3d 8d0e a73d e8f2 d93d
000002f0: 5824 83bd 3ca1 abbd 5354 723a c740 093b
00000300: 84d6 243d 57d9 74bc 29a4 213d af04 b4ba
00000310: e3c6 813c 7db1 ab3d 983f 303d 9631 4c3d
00000320: c896 373c 2cfd 9cbc 0e8d 10bb 5828 743c
00000330: ca14 313d aad7 383d 9f15 213c 0270 d23b
00000340: 37c8 bcba 9634 9dbb f293 1dbe 01fa 73bc
00000350: 394c 263c 0f66 1e3d 9ffe 743d 0101 1f3e
00000360: 7ab7 1fbc 9ee7 95bd 278d d0bc 3628 94bc
00000370: 73a6 893d 3645 5d3d 41af 0d3c baf6 b1ba
00000380: 537c 613d a4c8 bc3d 10aa 413d 6bc7 9a3d
00000390: a281 913d bec0 ee3c d675 953d b2ca f43c
000003a0: 7e87 1e3d 6bef b73d dbe8 d43c 6875 febc
000003b0: 73c0 4cbd 3e97 07be eb3e 91bd 1aa1 09bd
000003c0: 9516 253c 65e0 723d 89e5 ec3d dc39 0dbc
000003d0: 729c 4dbd ef16 fbbc 320c ad3b 221e 0dbb
000003e0: e8bf b33d 7ebc c13a 4a3d 513d c921 0f3d
000003f0: 697d 783d 296d cc3c 0b25 1a3d 0000 c73d
-0.0038384178 -0.02531054 -0.022848982 0.0154971015 -0.030537996 -0.055055767 -0.023364678 -0.033503693
-0.060698908 -0.0039891023 -0.17208092 -0.062941596 0.04054034 -0.030796314 0.10386848 0.05223907
0.021864414 -0.11962214 -0.09206459 -0.107567534 -0.045627818 -0.07755212 -0.06379983 -0.027416198
-0.011931624 -0.028600655 -0.032549247 -0.006396355 -0.030874604 -0.005508567 0.022337334 -0.021185322
0.03468749 0.023976348 0.0049807527 -0.0023279684 0.003736902 -0.08823731 -0.060505744 0.014413374
0.009303278 0.042098437 -0.004329873 0.113717645 -0.015845943 -0.0073853894 -0.08182122 -0.1526487
-0.03631359 -0.019364147 -0.03478766 0.0038635856 0.048902173 0.020107374 0.029071232 -0.024541223
0.031889956 0.006019992 -0.02754479 0.0025128985 0.023242902 0.027289253 -0.011128422 0.00981685
0.01552981 -0.086396836 0.051216874 0.016809162 0.067683995 0.060226742 -0.03619122 0.084308736
-0.030594146 0.047838375 -0.04676837 -0.06833843 -0.072655834 -0.006715696 0.042347502 0.07355586
0.028623754 0.018538412 -0.012180404 0.005747614 0.02120932 0.00941775 0.050955065 0.034821935
-3.0360088e-05 -0.022825908 0.07091956 0.0113522215 -0.01316341 0.01181273 -0.012590096 -0.03502649
0.05663167 -0.0076411655 -0.05459363 0.015234623 0.05219285 -0.00817776 0.011980742 -0.00025742638
-0.031461377 0.044076834 -0.036676377 0.025329283 0.039950266 0.062109053 0.027290363 0.0063123843
0.011042296 -0.01114716 -0.011310298 -0.0019832498 -0.012119192 0.016856244 0.04644888 -0.039047338
0.00885873 0.08809665 0.0003972833 -0.0130381035 0.03684231 0.020995699 -0.02649743 0.022008277
0.09303756 0.021479614 0.08807824 0.009182773 -0.047519494 0.011066166 0.02609336 -0.0057825777
0.009135627 -0.0015333759 -0.00578554 -0.0071600345 0.0019605372 0.05231883 -0.02783267 -0.016415095
0.09494674 -0.031063655 0.015237453 -0.0864434 -0.053089976 -0.06239797 -0.053661294 -0.06362691
0.010773931 0.047069613 -0.038085945 0.0080786 0.064654015 0.096987695 0.020176223 0.017276011
-0.12969054 -0.069787234 -0.056493957 -0.017690666 0.0024994246 0.033158187 1.3117053e-05 0.020390276
-0.016917378 0.031170614 0.030554458 0.035845455 0.022951283 0.020700423 0.04804693 0.027021574
0.022170672 -0.0052017267 0.06384007 0.022113819 -0.0063843713 0.02638346 -0.032311775 -0.030237898
0.022424832 0.03502192 0.08157072 0.10642034 -0.064034164 -0.083803624 0.00092441327 0.0020943151
0.04024364 -0.014944396 0.039463196 -0.0013734306 0.015841907 0.083834626 0.043029398 0.049851976
0.011205383 -0.01916369 -0.0022056731 0.014902197 0.043232717 0.04512755 0.009831815 0.006422044
-0.001440293 -0.0047975285 -0.15388468 -0.014891149 0.010150009 0.03867155 0.059813138 0.15527727
-0.009748334 -0.07319568 -0.025457932 -0.01808558 0.06721201 0.054021083 0.008647741 -0.0013577559
0.055050205 0.09217957 0.047281325 0.07557567 0.071048036 0.029144641 0.07297866 0.029881809
0.038703434 0.08981212 0.02598994 -0.031061843 -0.04998822 -0.13241288 -0.07092079 -0.033600904
0.010076185 0.05929603 0.11567218 -0.008619752 -0.050198026 -0.030650584 0.005280995 -0.0021532853
0.087768376 0.0014780906 0.05108384 0.03494433 0.060666475 0.024954395 0.037632983 0.09716797

fc1.bias f4 [100]
00000000: 6161 9f3d 54a6 023d a94e 0a3d 2908 10be
00000010: e1dc acbc 202e 3fbe 6f90 3cbe 5038 883e
00000020: 9083 163d 6daf 653c 9ad1 2ebe d9fa d0bb
00000030: 2013 5abc 25cb fbbd 1b00 5d3e 0005 bfbc
00000040: 810c 28bd 3de4 653d daea abbc a996 78bd
00000050: 6227 1a3e 1497 3c3d 3cf1 bebb 6b1f 1bbd
00000060: b786 92bd ca8d 7f3e 79d5 023a 6149 3bbd
00000070: 12e0 e63d 5218 9c3d f990 a53c 49e9 ddbd
00000080: 7e7e ae3d 22cc 2c3e 23db 93bd 0ed6 f23d
00000090: 02df babc c2a2 21be 881f 0a3e b0c4 df3c
000000a0: b266 afbd e0d6 d63e 1e53 c63d 7c50 38be
000000b0: 7144 b73e b079 6ebd 15c2 193b 7790 903e
000000c0: 24d1 843e 8973 33be 3593 1cbc dd8a 5d3e
000000d0: 458a a83e b4cb a8be fb1e 97bd 78b4 c3bc
000000e0: f3f3 5e3e 5784 c6bc 7b84 89bd a466 763c
000000f0: ee8f 73bd ef38 1fbd 9fc8 d5bd 12e2 0c3e
00000100: 3479 053e 340d 003e b2c1 51be 4077 f7bb
00000110: 18e7 43bd 871f 333e 49c0 643e ab32 97bd
00000120: f3df d6bd 9c6e 31be 40db 133e 0605 9fbe
00000130: 3b38 7bbe 7ccc 8abd a4d7 7f3d 0817 c13c
00000140: 2841 dcbd 2861 c8bc 8dd9 5cbd 2654 e1bd
00000150: f56c f4bd 5bbf 77be db13 923e b04c 8f3d
00000160: 5765 4abe b8bd 71bd fa69 413e ac13 053e
00000170: ec9e 043f 79d0 3b3e 810b 0e3d 82a4 edbe
00000180: d287 8ab8 d095 513e db4c 58bd 7f5f 98bc
0.077822454 0.031896904 0.033766422 -0.14065613 -0.021101417 -0.18669939 -0.18414472 0.26605463
0.03674656 0.014018876 -0.17072144 -0.0063775596 -0.013310224 -0.12294606 0.21582071 -0.023317814
-0.04102755 0.056125868 -0.02098601 -0.060690556 0.15054086 0.046042517 -0.005827097 -0.03787176
-0.07154601 0.24956432 0.00049909163 -0.045724276 0.11273207 0.07621826 0.02021073 -0.10835511
0.0852022 0.16874745 -0.072195314 0.11857234 -0.022811417 -0.15784743 0.1348859 0.027315468
-0.085645095 0.41960812 0.09683822 -0.17999452 0.35794404 -0.05822152 0.002346163 0.28235218
0.25940812 -0.17524542 -0.009556581 0.21635003 0.3291799 -0.32967913 -0.07378956 -0.023889765
0.21772747 -0.024233026 -0.06714722 0.01503912 -0.059463434 -0.038872655 -0.10438656 0.13758114
0.13034517 0.12505037 -0.20484045 -0.0075520575 -0.04782781 0.17492495 0.22338976 -0.07382711
-0.10491934 -0.1732735 0.14439106 -0.3105852 -0.24533169 -0.067772835 0.06246151 0.023570552
-0.10754615 -0.02446039 -0.05391841 -0.11002378 -0.119348444 -0.2419409 0.28530774 0.06997049
-0.1976522 -0.05901882 0.18888083 0.12995785 0.51804996 0.18341245 0.03467894 -0.46414572
-6.605651e-05 0.20467305 -0.05280767 -0.018600224

fc2.weight f4 [10, 100]
00000000: f67a 213f dba7 d0be ef82 5c39 2f8b b2bd
00000010: f17b dabe d919 593e 43e0 3a3f 400c a8bd
00000020: 2fd0 e83d ae84 683d 03f9 643e 692a 113d
00000030: a72a b7bb e1f5 81bb a8ae 093f 63d3 393c
00000040: a672 4f3e 0dea 8b3d bdc6 a43d e9af aebe
00000050: 0739 6cbe 8267 abbe 7774 c53c c41d c3be
00000060: ecae a3bc 00dc dc3b 8493 b6be 2949 0cbe
00000070: 4fa5 bfbd 2366 d53e 4b85 ff3d c898 b93e
00000080: 0323 e23e 8d47 30be c4e8 fdbe 6730 823b
00000090: 63ba d53e 3ccf 9e3e aa46 163e ed2f ba3d
000000a0: 5930 8fbe 16d8 8f3e 2e04 83bd b5fd 1abd
000000b0: effc b5be 35bf 1fbd 0016 a3be 0199 78be
000000c0: 29a5 f03e 7234 45bd f093 1b3f 7935 b6bd
000000d0: a8c6 01bf 72fc efbe 83d4 c5be a505 d63e
000000e0: 857d 373d 3085 033f 2f00 b63d 3d2c 5abe
000000f0: eed6 393f 83f9 a5bc d0f4 b2bd 05d4 2c3f
00000100: 8828 12bf c58b cf3e 6413 73be 5d2b 5dbe
00000110: 39be fcbd 2d17 32be b30a ba3e a0f3 303d
00000120: 4673 a83e 74b2 0f3d 6dfe 9d3e 27fe b53e
00000130: 2531 80be d5b5 8fbe cd3d 6f3e 3a0b f1bc
00000140: b115 15bd b28a a0bd 18e7 983e 7639 923d
00000150: 2b37 08be 6ae2 d0bd bea8 8a3e 9e93 fdbd
00000160: b074 fe3e 16ed 58bd d0d9 3a3e 8117 29bf
00000170: 86a2 e7be 8ef8 903d b804 b23e d92e 04bf
00000180: f295 e0be daad 103e 9143 583e 2e4e c5bd
00000190: 366b 6cbe c8cd 9cbe 5d1f b33d 1d99 81be
000001a0: 1436 7f3e 966d be3e eb31 4f3e 2593 62be
000001b0: df68 98be 85ee 93be 6cbd 67be b601 cc3d
000001c0: 12d6 63bd cbc0 e9bd de33 813e 0ffd d13c
000001d0: 6e12 be3c aaca 50be 244f b1bd 6a59 e43e
000001e0: 4108 b0bd 3532 eb3e f193 e9bd e28c 433e
000001f0: 1f27 2cbe 2ee1 9abe 8094 5bbc 2b6a 53bc
00000200: 9575 1dbf 0384 57bd 4987 52be 4610 cf3e
00000210: 7fe2 09be d037 2dbe a8cd b5be a8fa 1f3e
00000220: 2bb6 8c3e 0615 97be 1b6b 2abd c378 a4bc
00000230: 1bc9 ddbd f2b9 a1be 6158 7e3d cde7 af3e
00000240: 7896 80be ae40 aabe e2f9 b83e fb11 6f3e
00000250: 6e89 383d a648 963e 0d25 b23e 25e9 0cbe
00000260: 210b c8bd 1c2c 0c3e 369d 5fbd d5b1 a6be
00000270: fa5f a7bd ddb9 d7bc c9a0 e13e f736 d13e
00000280: 1458 4cbe 8940 e93b c23f 3abe ad4a 813d
00000290: b1f9 1d3e 9eea 2bbe 9551 993e 9a0d a3bc
000002a0: 187d 743e 0cfa cf3d e602 a4be 7b01 3dbe
000002b0: 88de 4e3e 09da 243d 3fa6 7d3e 3d1a 78be
000002c0: abbf df3e 14ba b53d 9184 5d3d 7393 bdbd
000002d0: 8e76 c13e c9fb e8be 3bf0 1f3f c7d6 1fbe
000002e0: f398 fb3e 21d7 a23e 34b9 9f3d 57b7 0cbf
000002f0: 8c9d 6c3d e8d4 a63d 243d 83be 7611 b9bd
00000300: bc59 01bf 29d5 91bd a1f3 48be 9159 6b3f
00000310: 8e7d 623d a669 14be af6d d6be b6fe d73d
00000320: 037a a0be a9c9 d13e da6c 1bbd 4ba5 1c3f
00000330: c59f 18bf 66ec 88be 7d9a 573f ead6 a43e
00000340: d543 093f b8c2 29bd c749 5dbe 1e05 93bd
00000350: 782a 85bd b292 96be 8249 33bf e27f 513d
00000360: 312e b63d dc25 843e de9b 3b3d 148c 423e
00000370: 9da5 223f 3095 e6be ab1e a13e 60b4 1b3e
00000380: 8954 363d 30e6 5c3e 417d df3e 5011 d0be
00000390: 919d 6a3e 350d f7be 53c2 483f 8213 51be
000003a0: c5b7 b13e ce46 a23e 7190 b4be 99f7 7dbe
000003b0: 5b24 bbbe a9e8 d33d 93ec 893d 34fd ba3e
000003c0: 3976 aa3e c6a6 9dbf cb5a 93be cc8f 953b
000003d0: 5691 873e 0767 87be 504d 7abe 5f26 6a3e
000003e0: d740 a9be bc78 cd3d 0d1a 433f 51f6 babe
000003f0: 83fc 1c3f 8da7 f5be ecc2 1bbe c57e 603e
0.6307825 -0.40753064 0.00021029612 -0.087179534 -0.42672685 0.21201266 0.72998446 -0.082054615
0.11367833 0.05676716 0.22360615 0.035440836 -0.0055898014 -0.0039660786 0.5378213 0.011341902
0.20258579 0.06831751 0.08045719 -0.34118584 -0.23068629 -0.33477408 0.024103386 -0.38108647
-0.01998087 0.006740093 -0.3565942 -0.13699783 -0.09357702 0.41679487 0.124765955 0.36249375
0.44167337 -0.17214794 -0.4959165 0.003973055 0.41743764 0.31017482 0.14675394 0.09091172
-0.27966574 0.28094548 -0.063972816 -0.03783961 -0.35544536 -0.03900071 -0.31852722 -0.24277116
0.47001007 -0.04814572 0.6077261 -0.08896918 -0.5069375 -0.46872288 -0.38638696 0.4180118
0.04479744 0.51375103 0.08886754 -0.21305938 0.7259358 -0.020260578 -0.087381005 0.67511016
-0.57093096 0.40536323 -0.23737866 -0.21598573 -0.123409696 -0.17391653 0.36336288 0.04320109
0.32900447 0.035082296 0.30858174 0.35545465 -0.25037494 -0.28068414 0.23363419 -0.029424299
-0.03639764 -0.07838954 0.2986381 0.07139866 -0.13302295 -0.10199435 0.27081865 -0.12381671
0.496984 -0.052960478 0.18247151 -0.6605149 -0.45241183 0.07078658 0.34769225 -0.51633984
-0.438644 0.14128819 0.21119525 -0.09634052 -0.23087773 -0.3062575 0.087462164 -0.2531213
0.24922973 0.37192982 0.20233886 -0.22126444 -0.2976751 -0.28892913 -0.22630852 0.09961264
-0.055624075 -0.114137255 0.25234884 0.025633363 0.023202147 -0.2038981 -0.08657673 0.44599468
-0.08595324 0.45936742 -0.11405171 0.19096711 -0.16811799 -0.30249923 -0.013402104 -0.01290373
-0.6150754 -0.05261613 -0.2055942 0.40442103 -0.13465308 -0.16915822 -0.35508466 0.15622962
0.27482733 -0.29508227 -0.04160605 -0.020077115 -0.108293734 -0.31587178 0.062096003 0.34356537
-0.251148 -0.33252472 0.36128145 0.23346703 0.04505294 0.293523 0.34793893 -0.13760813
-0.09767748 0.13688701 -0.054593287 -0.3255755 -0.08172603 -0.026333744 0.44067982 0.40862247
-0.19955474 0.007118289 -0.18188384 0.063130714 0.15427281 -0.16788718 0.29945055 -0.019903947
0.23875844 0.101551145 -0.3203346 -0.18457596 0.20202076 0.040246997 0.24770449 -0.24228759
0.4370092 0.08873382 0.054081503 -0.09256639 0.37785763 -0.45504597 0.6247594 -0.15609275
0.49140128 0.31804755 0.077989966 -0.54967254 0.057767436 0.081460774 -0.25632584 -0.090365335
-0.5052755 -0.07120735 -0.19624187 0.9193354 0.05529552 -0.14493427 -0.41880557 0.10546629
-0.31343088 0.40974167 -0.037945606 0.6118972 -0.5961879 -0.26742858 0.84220105 0.32195216
0.5361913 -0.041445464 -0.21610175 -0.071787104 -0.06502241 -0.29408795 -0.7003404 0.05114735
0.08895529 0.25810134 0.045802943 0.18998748 0.63533956 -0.45035696 0.3146871 0.15205526
0.044514213 0.21572185 0.4365025 -0.40638208 0.2291167 -0.48252264 0.78421515 -0.20417598
0.34710518 0.31694645 -0.3526645 -0.24801482 -0.36551175 0.10347111 0.06734576 0.36521304
0.33293322 -1.231652 -0.28780207 0.004564261 0.2647807 -0.2644579 -0.24443555 0.228662
-0.3305728 0.10032794 0.76211625 -0.3651605 0.613228 -0.47979394 -0.15211076 0.21923359

fc2.bias f4 [10]
00000000: f894 9dbc 4610 79be 0414 a23d f27a 593e
00000010: a88a efbe e94a 653f 3f17 ef3d f5a5 8d3e
00000020: 60ce 8fbe 5af0 e6be
-0.019236073 -0.24322614 0.07913974 0.21238306 -0.46785474 0.8956743 0.11674356 0.27665678
-0.2808714 -0.4510525
