ckpt/fashion-mnist/sgd-m/weights.pt (torch, 319519 bytes, 4 tensors)

fc1.weight f4 [100, 784]
000000 cd 1f bf 3c 83 fa db bb 8f cc dd 3c 4e 1f d4 3c
       0.023330593 -0.006713213 0.02707508 0.025893833
000010 1d e0 b0 bd 59 46 29 bc 34 4f 38 3e 11 6b 12 3e
       -0.08636496 -0.010331714 0.17998964 0.14298655
000020 30 68 8e be ee b8 3f be 6f 25 f2 3c 56 a3 6d 3d
       -0.27813864 -0.18722889 0.029558865 0.058017097
000030 db 58 86 3e 7d a8 40 be c5 d7 00 be 18 8d 49 bd
       0.26239666 -0.18814273 -0.1258231 -0.049206823
000040 f9 bd b0 bd ca ed 07 3d dd b7 d9 be 90 de 38 be
       -0.086299844 0.033185758 -0.4252309 -0.18053651
000050 4d 67 93 3e 3c e4 0b 3e e4 c9 49 bd 43 40 b8 bd
       0.2878975 0.13661283 -0.049264804 -0.08996632
000060 25 9c 4b 3d ea 3b e1 bb 29 1a df 3c 9d f1 ed bc
       0.049709458 -0.0068735974 0.027234154 -0.029045874
000070 e6 74 a2 3c 3d 19 36 3d 88 1b ac 3c 9c d1 9a bd
       0.019831132 0.044457663 0.021009222 -0.07559511
000080 05 a1 4c bd df 0a a8 bd bd 68 31 3d 0a 27 fe be
       -0.049958248 -0.082051985 0.043312777 -0.4963916
000090 d8 79 9f be c3 e4 68 3e 23 00 5c 3e 7f 62 48 3e
       -0.31147647 0.22743516 0.21484427 0.19568823
0000a0 62 b6 bf 3e 4a 1a dd 3e 38 01 0b bd a6 7a f3 bb
       0.37443835 0.4318412 -0.03393671 -0.0074303923
0000b0 d7 c8 92 bb 3f ee c8 bd 0e 23 cb 3e 11 cd 66 bc
       -0.0044795084 -0.09811067 0.39675182 -0.014086978
0000c0 f2 0a 2e be f5 a6 3f be 36 72 a0 bd 81 0d cf 3c
       -0.16996363 -0.18716033 -0.07834284 0.025274994
0000d0 6a 6c 02 3e 89 a9 ad 3d d8 69 ec bb e5 0c 0e 3d
       0.12736669 0.08479602 -0.007214766 0.034680266
0000e0 0f c2 19 bb f2 09 d3 bc e9 80 8a bb 13 0b 81 3c
       -0.0023461615 -0.025761578 -0.004226793 0.01575235
0000f0 4c 4e 10 bd 8e 7f 68 bd b9 d2 9f be 85 a6 6e 3e
       -0.03523092 -0.05676227 -0.31215456 0.2330571
000100 b3 86 ac be c7 40 9c 3d e3 bc 06 3c ec 41 4d bc
       -0.33696517 0.07629543 0.008223745 -0.012527924
000110 9b ee 0c 3e a1 8a e9 3d 7a 6d 46 3d 18 f3 df be
       0.13762896 0.114033945 0.04844425 -0.43740153
000120 bc f0 8f be a6 82 4a bd 25 59 42 3e e1 a4 b0 be
       -0.28113353 -0.049441002 0.18979318 -0.34500793
000130 6a 10 58 3e cd b6 96 bd 00 eb bb 3e 82 79 69 3e
       0.21100011 -0.07359085 0.36702728 0.22800258
000140 6a 6d 3d 3e 30 38 49 3d e3 3e 30 3c 97 82 48 bc
       0.1849877 0.04912585 0.010757181 -0.012238166
000150 29 d7 7d bc fe cb 72 bd 26 f8 ae 3d ae 47 b6 3d
       -0.015493193 -0.059276573 0.08543424 0.089003906
000160 7b 93 24 3c cf 4d f0 bc 00 fc 8f bd 64 c9 ec 3c
       0.010044928 -0.029333977 -0.07030487 0.028904624
000170 ba 22 92 3d 16 98 ae bd 02 95 eb 3d a6 00 20 3d
       0.0713553 -0.08525102 0.1150303 0.03906312
000180 ab 4f 4e bd 9e 1f 40 bd 51 0a 59 be c5 df bf be
       -0.050368946 -0.046905152 -0.21195342 -0.3747541
000190 15 be 2a be 82 b6 57 3e bb 13 12 3e 62 b9 a7 3d
       -0.16674073 0.21065715 0.14265339 0.08189656
0001a0 00 4d cf bd 33 15 06 be 99 1b f0 bd 6c 8b 0e 3e
       -0.101221085 -0.13094024 -0.11724014 0.13920373
0001b0 24 d7 1b 3e 1d 7d 6a 3e 8a 55 29 3d 03 d3 85 3b
       0.15218788 0.2289929 0.041341342 0.0040839924
0001c0 59 18 09 bd 36 06 44 3d 25 ab 64 bd c7 a6 04 3e
       -0.033470485 0.047857486 -0.05582728 0.12954246
0001d0 c4 81 be 3d 92 bf ad be d1 48 16 be e4 8b f4 3d
       0.093020946 -0.3393522 -0.14676215 0.119407445
0001e0 42 d4 f1 3e 2e 30 d8 3c 32 eb 58 be a7 5c 95 3e
       0.47232252 0.026390161 -0.2118347 0.2917225
0001f0 dc 80 7a 3e b4 aa d6 3d 83 ab e7 bc d2 5e db bd
       0.24463218 0.10481778 -0.028280025 -0.10711445
000200 f7 5d fa 3d 57 ff c8 3c 63 a7 b1 bd 39 34 72 3e
       0.122249536 0.024535818 -0.086745046 0.23652734
000210 d5 6d bb bc cd c8 1c be 91 94 20 be be f2 89 3e
       -0.02287952 -0.15310974 -0.15681674 0.2694301
000220 69 eb 34 3e 91 1d 12 bd 9b 20 aa 3d d8 14 91 bc
       0.17667927 -0.035672728 0.08307 -0.017710134
000230 a1 bb 70 3c c4 f5 e2 bd bd 5f df bd c3 fd 01 3e
       0.014693172 -0.11082032 -0.109069325 0.12694459
000240 61 5f c8 3e 65 e1 a4 bd 37 bb 31 3e a2 dd a8 3e
       0.39135268 -0.08050803 0.17356573 0.32981592
000250 09 d0 0d 3c 4c c3 01 3d 2d 84 28 bd 18 e3 59 3e
       0.0086555565 0.03168039 -0.041141678 0.21278036
000260 23 17 c2 3d ba c6 2f 3e c8 66 27 3e 49 da 4c 3e
       0.09477069 0.17165652 0.16347802 0.20005144
000270 ab a5 83 3e 61 d7 ac 3d c8 9e 89 bc 85 1f 2f bd
       0.25712332 0.08439518 -0.016799346 -0.04275467
000280 fd 28 0d be fd a2 40 3d dc 4c 5a bd 79 b1 92 3e
       -0.13785167 0.047030438 -0.053295955 0.28651026
000290 ed 5a ac 3d 8d 4e da 3b 02 75 f6 bd 22 f3 c4 ba
       0.0841578 0.006662196 -0.12034036 -0.0015026073
0002a0 00 70 18 bd dd cc 2f be 45 59 57 bd e2 37 0d be
       -0.037216187 -0.17167993 -0.05257537 -0.13790849
0002b0 0b 3e b5 3d 77 b7 50 3e fd ab 37 be 03 51 7f 3e
       0.088497244 0.20382486 -0.17936702 0.24933247
0002c0 70 69 cc be cb c9 43 be 97 18 72 be 65 e1 92 3e
       -0.39924192 -0.19119947 -0.23642193 0.28687587
0002d0 ff 5c c3 3b 08 5b f5 3c ba a8 7f be 5e 17 2e 3e
       0.0059620137 0.029950634 -0.24966708 0.17001101
0002e0 69 64 9d 3e 01 04 59 bd 31 78 08 3e f3 de c8 be
       0.3074067 -0.052982334 0.133271 -0.39232597
0002f0 f8 af 8d 3d 3d bc 06 be 66 71 1e bd 94 d1 f1 3d
       0.06918329 -0.13157745 -0.038682364 0.11807552
000300 8a aa 0a 3e 51 aa cc 3d e4 5e 3e be 04 c7 0c be
       0.13541618 0.09993423 -0.18590885 -0.13747793
000310 27 55 88 3d 2d 17 48 3b 2a c9 0e bd b0 2b 8f be
       0.066568665 0.0030531392 -0.034859814 -0.27963018
000320 05 83 ba 3d 91 13 6c 3d 9f 32 32 3d ad ac ca 3d
       0.09107021 0.057635847 0.043505307 0.098962165
000330 03 53 64 be 9d c5 0c be 1d 4e 3d 3d 61 2e b8 3c
       -0.22297291 -0.13747258 0.046217073 0.022483053
000340 65 38 8e bc 39 80 a8 3d ff 4f c0 b9 6e 0a 9f be
       -0.017360875 0.082275815 -0.00036680695 -0.31062645
000350 49 c4 49 be 54 66 97 bd 1b 1d 0e bd 48 ae 3d 3e
       -0.19703783 -0.073925644 -0.034695726 0.18523514
000360 7a 0f 6c be 42 53 4c 3e 2c 49 10 bc 6b 94 17 3e
       -0.23052779 0.19953635 -0.008806508 0.1480271
000370 ad de 2c be 19 6c 1b be 29 c9 c4 bd 90 ee b4 bc
       -0.16881819 -0.15177955 -0.09608681 -0.022086412
000380 ed 06 80 bc fb 6d 44 be 24 c6 c6 3d 16 2e 30 bd
       -0.015628302 -0.19182579 0.09705761 -0.0430127
000390 bb e8 d3 3e 4b 0f 4a be 0a e0 6e be fa c5 ae 3d
       0.41388497 -0.19732396 -0.23327652 0.08533855
0003a0 1d 35 26 3d 6b aa 28 be 09 67 31 3e f1 c0 c4 bd
       0.040577997 -0.1647126 0.17324461 -0.09607113
0003b0 2d 8f d7 3d dc fc 47 3e 4d 33 6c 3d 58 53 ed 3c
       0.105253555 0.19530052 0.05766611 0.028970405
0003c0 0d 26 4f be 17 de 74 be e9 b2 2f 3e 6a 37 e2 bd
       -0.20229359 -0.23912846 0.17158093 -0.11045726
0003d0 38 9e 6e 3c 3c a5 bb 3d 53 b6 65 be 94 47 b9 bd
       0.0145640895 0.09162375 -0.22432832 -0.090468556
0003e0 6e c6 86 3e 93 61 89 3d cf bc 1a be e4 4d a8 3a
       0.26323265 0.06708064 -0.15111087 0.0012840596
0003f0 51 83 ea bd 2c 0d 42 be a1 2d f5 bd ee 57 20 3d
       -0.11450828 -0.18950337 -0.11971594 0.039146356

fc1.bias f4 [100]
000000 46 cf 09 be d3 f0 ae 3e 5e 1d 09 3e e1 46 c0 3e
       -0.13457975 0.3416811 0.13390109 0.37554076
000010 9d 10 2d 3e 64 ec 05 bd 80 f0 e6 be f0 a3 8a 3e
       0.16900869 -0.032696143 -0.45105362 0.270782
000020 12 32 f5 3e 5d 87 31 3e e1 c5 10 be 0e 7d c4 3d
       0.47889763 0.17336793 -0.14137985 0.09594165
000030 bd 62 61 3e fe 75 64 bc c9 e4 a4 3c 3e fe b7 be
       0.22010322 -0.013944147 0.020128625 -0.3593616
000040 bb e5 14 3f f3 7a 75 3e e4 9b 68 bc e1 9f 9d bc
       0.5816304 0.23972683 -0.0141973235 -0.019241275
000050 66 db c7 3c d9 c6 dc 3c fc 1c 42 3d 22 17 36 bf
       0.02439661 0.026950287 0.047390923 -0.7112905
000060 9b 82 ec 3e 05 ba 46 be 7a 3a 44 3e 80 8c f4 3e
       0.46193394 -0.19406898 0.19162932 0.47763443
000070 3e 6a 06 3f d3 32 03 bf 0b ef 39 bf 60 b9 61 3e
       0.5250586 -0.51249427 -0.72630376 0.22043371
000080 e2 e5 3e bf 58 24 94 3e 95 93 42 3d ee 38 8e bc
       -0.74569523 0.28933978 0.047504026 -0.01736113
000090 41 57 b4 bb ca f9 2d be 1d c6 9b 3d 66 f0 b6 bc
       -0.0055035655 -0.16989818 0.076061465 -0.022331428
0000a0 71 d5 f9 3e 31 aa 0b 3e ac 5f d4 be 24 1f 9a 3e
       0.48795655 0.13639142 -0.41479242 0.30101883
0000b0 24 fa f9 3e 67 43 8b be 50 b2 e5 3a 82 ba 18 be
       0.48823655 -0.2719986 0.0017524455 -0.14914897
0000c0 cd 81 aa 3e 2a c0 58 3f 77 fa ff 3d dd 65 8f 3e
       0.33302155 0.8466822 0.12498944 0.28007403
0000d0 cf aa c6 3c 12 6d 68 be ab be dc bd bf 64 41 be
       0.02425137 -0.22697857 -0.107785545 -0.18886088
0000e0 dc 46 0a be 1c dd 07 3f 5f 5f 17 3d 0f 80 89 3c
       -0.13503593 0.5307176 0.036956187 0.016784696
0000f0 38 c7 2e 3f 79 b3 e0 3e 10 29 8d 3e 3b e6 7f 3e
       0.68272734 0.43886927 0.2757039 0.2499017
000100 0d 56 9f be 52 8e 6b 3f 1a b7 bf 3d a0 d7 3d bc
       -0.3112034 0.9201404 0.09361096 -0.011587054
000110 40 a6 95 3e d2 89 a6 be 55 85 1c 3f 32 24 d6 3e
       0.292284 -0.32527024 0.6114095 0.4182449
000120 0d 1b cc bb 87 ba 23 bc 55 fe df be f4 75 b2 3e
       -0.0062288106 -0.009993202 -0.43748727 0.34855616
000130 c0 f9 0f 3e 62 74 d9 bc 6c 56 ce be 89 9b 7b 3f
       0.14060116 -0.026544753 -0.4030031 0.982842
000140 1b 4c a1 3c e7 d6 bc be 5e d0 4c 3e ef a5 98 3c
       0.01968961 -0.36882707 0.20001361 0.01863381
000150 51 98 58 3e 9d 0e 5f be b0 b7 e0 3e b2 25 47 be
       0.21151854 -0.21782918 0.43890142 -0.19447973
000160 fc bd 15 3f 92 84 58 3f 27 53 7d 3e 09 3a 1d bf
       0.5849302 0.84577286 0.24738751 -0.6141668
000170 62 5e 2d 3d 69 df 68 bd 24 99 b2 be 86 24 0c bf
       0.04232634 -0.056853686 -0.34882462 -0.5474323
000180 3e 9e b8 bd 3e 62 e2 be b8 c9 aa 3e f1 73 ff 3d
       -0.09014557 -0.44215578 0.33357024 0.12473286

fc2.weight f4 [10, 100]
000000 4b 3b ad 3f 4f 16 87 3f 02 1b 47 3d ba ce 13 3f
       1.353372 1.0553683 0.04860974 0.57737315
000010 c2 a8 78 bf 3d 6a 06 bf 67 35 4b 3f bc 70 5f 3f
       -0.97132504 -0.52505857 0.7937836 0.87281394
000020 2c bb 5f 3f 15 68 04 bd 54 9e 65 3e 85 f8 5c 3f
       0.87394977 -0.032325823 0.22423679 0.8631671
000030 e9 77 32 3e 48 6e d1 be d6 25 f9 bc 92 9a af bf
       0.17428555 -0.4090445 -0.03041355 -1.3719046
000040 28 75 c2 bf ae 3e 17 3f bf dd 82 3d 31 c2 83 bb
       -1.5192003 0.59080017 0.06389951 -0.004020952
000050 00 44 87 3f f3 17 22 3f c3 ed 4a 3e 72 cc 49 bd
       1.0567627 0.63317794 0.19817261 -0.04926724
000060 19 4b 25 3f 9c 33 73 3d fa c5 f4 3d d0 f5 8c bf
       0.64567715 0.05937539 0.119518235 -1.1012516
000070 6a 84 02 40 64 b6 a8 be 47 e5 cc 3f 4d b4 be 3f
       2.039332 -0.32951653 1.600747 1.4898773
000080 09 8c 8c 3f a4 b0 a6 bf 5b e3 ac bf 26 45 af 3d
       1.0980235 -1.3022656 -1.3506883 0.08558111
000090 d6 f3 59 bd d0 66 b9 3e af 5a 16 3e 1d db 1d bf
       -0.053211056 0.36211252 0.1468303 -0.61662465
0000a0 be 6b 8f 3e 47 7d 04 3d 9a 8f 94 3f bb 15 d5 bf
       0.28011888 0.032346036 1.1606324 -1.6647257
0000b0 28 b1 41 40 6e a1 16 3f 57 f7 ab be 88 87 de 3f
       3.0264378 0.5884007 -0.33587143 1.7385111
0000c0 d1 1b 33 bf b3 60 8e bf f1 bd 83 3e b6 75 10 be
       -0.6996432 -1.112326 0.2573085 -0.14107403
0000d0 08 d5 98 3d 9e 62 8a bf 59 b4 26 be 53 71 57 bf
       0.074625075 -1.0811346 -0.16279735 -0.84157294
0000e0 d6 67 bc bf f4 40 19 3f e3 70 ae bf bd b4 37 bd
       -1.4719188 0.59864736 -1.36282 -0.0448501
0000f0 4e 81 57 3e af 11 90 3f 86 64 a3 bf b9 49 54 bb
       0.2104542 1.1255397 -1.2765052 -0.0032392575
000100 5d 43 dd bf 29 e8 a6 3f 35 60 3c be b0 cf b4 3e
       -1.7286183 1.30396 -0.18396075 0.35314703
000110 74 49 cd 3e e3 11 ab 3e d1 3c 31 c0 a0 72 03 40
       0.40095103 0.33412084 -2.769337 2.0538712
000120 08 25 8a 3f f1 a7 24 bd 22 55 cb 3f 2d a9 f5 bf
       1.0792551 -0.040199224 1.5885355 -1.9192253
000130 80 46 a1 be 15 d5 3f bf 9f 32 92 bf d3 d0 db 3e
       -0.314991 -0.7493451 -1.1421698 0.42932758
000140 1f 13 b2 3d 0b f7 ae 3f 2b 88 02 bf 0d e0 fb bb
       0.08695053 1.3669142 -0.50989026 -0.007686621
000150 36 16 9e bd 20 49 f9 3d 0f 86 89 3e e5 b7 0e bf
       -0.0771908 0.121721506 0.2686009 -0.5574935
000160 41 cc af bf 7c 6d e5 3f 74 fd c6 be 09 3b a2 3e
       -1.3734208 1.7924037 -0.38865244 0.31685665
000170 e7 07 03 c0 f7 f2 c3 3f 25 5c 05 c0 b8 0f 2e be
       -2.0473573 1.5308522 -2.083749 -0.16998184
000180 8d 1e ed 3b ca ec 88 bf be 02 d5 be 7d 14 01 bf
       0.007236308 -1.0697262 -0.41603655 -0.5042189
000190 d6 bc ea 3d b8 5d a8 bf 8b 67 94 3d 31 d6 f1 3e
       0.11461799 -1.3153601 0.07246312 0.47233728
0001a0 dd b6 10 3e 9d 59 76 bc 8c af 1c 3d d0 f2 d4 3e
       0.14132257 -0.015036014 0.038253352 0.415915
0001b0 71 a2 22 bb 8a 5f 63 3d 93 c9 c6 3e 12 5f ec 3e
       -0.002481606 0.055511035 0.38825664 0.46166283
0001c0 03 64 bd 3f 91 7a bf 3e 0e 73 ce bc 00 47 48 3e
       1.4796146 0.37398198 -0.025201347 0.19558334
0001d0 59 fc e3 3e 61 3b f4 3e 02 db d5 bc 3a d0 f9 bc
       0.44528463 0.47701553 -0.026105408 -0.030494798
0001e0 fa 2f 96 bf 94 2d 05 3f 69 90 4e 3e b2 38 01 bf
       -1.1733391 0.5202267 0.20172276 -0.50477135
0001f0 a0 70 5d 3c 08 d9 44 3f a9 f4 08 be 11 2f 57 be
       0.013515621 0.76893663 -0.1337458 -0.21014048
000200 45 74 76 3d 36 ca a3 be 87 80 65 3f 4b 8f bc bc
       0.060169477 -0.31990212 0.8964924 -0.023017546
000210 67 1e a5 3e da 13 c6 bb bd a1 09 3f eb 2b 99 bd
       0.32249758 -0.006044847 0.5376242 -0.0747908
000220 a2 26 2d bc db 81 a7 bd 42 2f 0b 3f 95 6e 60 be
       -0.010568293 -0.08179065 0.54368985 -0.21917184
000230 c8 d7 c3 be bf a7 19 bf 15 d9 87 3f 1d 41 68 be
       -0.38250566 -0.60021585 1.0613123 -0.22681089
000240 df c8 63 be ae 42 4d be 0a e3 ee bd 56 fd b6 be
       -0.22244595 -0.20044968 -0.11664398 -0.35740155
000250 c7 35 98 3f da 23 f1 3f af 43 6c 3d 84 10 00 c0
       1.1891412 1.8839066 0.057681736 -2.001008
000260 19 31 25 bd 2f 3e ad be 99 99 ab bd 8b 95 9c be
       -0.040330026 -0.33836505 -0.08378906 -0.30582842
000270 03 e8 a7 be ae e9 c6 3d b5 ff f1 bd 43 26 15 3d
       -0.32794198 0.097125396 -0.1181635 0.036413442
000280 45 2d fd be fb 28 d7 bf 13 17 f2 3e de cf 34 bf
       -0.494486 -1.6809381 0.4728323 -0.7062968
000290 7f 89 bb be b7 1f 41 bf a3 dd a0 bd 66 e5 0b 3e
       -0.3662834 -0.7543902 -0.07854774 0.13661727
0002a0 65 2b 97 be db a5 97 3e e2 bf 9a bf e2 e5 f5 3e
       -0.29525295 0.29618725 -1.2089808 0.4802695
0002b0 24 5c 96 3f 13 79 bf bc a6 f5 86 3e 95 a2 e2 3e
       1.1746869 -0.023373162 0.2635929 0.44264665
0002c0 b4 93 4b be 6f 64 ff bd fc ff f2 3e 87 ab 91 be
       -0.19880563 -0.12470328 0.47460926 -0.28451177
0002d0 ed a3 bd 3c bc 63 f5 3d 2d 73 20 3f ea b0 80 bd
       0.023149455 0.119819134 0.62675744 -0.06283744
0002e0 54 98 01 bf 3f ba 38 bc 6c b9 b0 be 0c 7c 83 bf
       -0.5062306 -0.011274873 -0.34516466 -1.0272231
0002f0 aa 46 98 be 60 96 4d bf 21 cc 89 3f d4 85 d8 be
       -0.29741412 -0.8030758 1.076542 -0.42289603
000300 02 1a 13 3f b0 d7 b6 3e ce c5 fe 3f 8a c1 43 3f
       0.5746156 0.35711432 1.9904115 0.7646719
000310 8d 4a 05 3d 03 95 e7 3e 6b 7c ed be 50 8c 01 be
       0.0325418 0.45230874 -0.46383986 -0.12651181
000320 23 e0 9b 3f cb e0 86 3e 06 66 0e be 39 67 d8 3f
       1.2177776 0.26343378 -0.13906106 1.6906501
000330 46 bc f9 3d b7 a5 bb 3e 68 64 d4 3f 46 d8 64 3f
       0.121941134 0.36649868 1.6593142 0.8939251
000340 02 5a e4 3f 9f a4 c2 3f 47 fb f7 3f 76 cb 47 be
       1.7839968 1.5206488 1.9373559 -0.19511208
000350 ec 17 a6 3e 86 65 16 3f ab 94 c0 bd 95 79 b2 3f
       0.32440126 0.5874866 -0.09403356 1.3943354
000360 a3 53 4b bf 0e 05 15 3f 64 26 2a bd 72 f6 d5 bc
       -0.79424495 0.5821084 -0.04154052 -0.02611849
000370 9a fd 77 3f e5 68 1e 3e 34 61 c0 bf 97 b3 10 3f
       0.9687134 0.15469702 -1.5029664 0.5652403
000380 06 ec cd 3e b0 25 90 be 25 4e 10 bf be 64 fc bf
       0.40219134 -0.28153753 -0.5636924 -1.9718244
000390 de c8 8d 3f 0b ab fd be 2e 16 55 bf b8 2e 9a be
       1.1076925 -0.49544558 -0.8323697 -0.3011377
0003a0 b3 3c fd bf 4f 43 bf 3f 7a 4c cc 3d fa 40 a8 bd
       -1.9784149 1.4942416 0.09975524 -0.08215518
0003b0 52 68 1e 3b b7 1d 3f 3f 4a 18 fe be af be a4 be
       0.0024171066 0.74654716 -0.49627906 -0.3217673
0003c0 e9 20 f8 bd 74 9c 9d 3c 6b 2a eb 3a af f3 16 bf
       -0.12115652 0.019239642 0.0017941719 -0.5896558
0003d0 af 4e b4 be 5c 02 89 bf d9 2e aa bf 4b 98 30 c0
       -0.3521628 -1.0703845 -1.3295547 -2.7592952
0003e0 64 c5 79 3f c1 1e 9c bf 18 40 0c 3e 2d a3 89 be
       0.9756682 -1.2196885 0.13696325 -0.26882306
0003f0 99 94 db bd 95 b1 ab 3e c2 15 11 be f6 a6 79 3f
       -0.10721702 0.33533922 -0.14168456 0.9752039

fc2.bias f4 [10]
000000 7c df 61 3e 43 d5 8c be 54 62 00 bd 67 34 4b be
       0.22057909 -0.27506456 -0.031343773 -0.19844209
000010 1c 79 43 bf 88 30 93 3f 1e e3 59 3d 03 45 0e 3f
       -0.76356673 1.1499186 0.05319511 0.55574054
000020 2b 4b 98 be db 17 44 bf
       -0.2974485 -0.765989
