ckpt/mnist/sgd-m/weights.pt (torch, 319519 bytes, 4 tensors)

fc1.weight f4 [100, 784]
00000000: 735d 67bd 1d9a 01bd 5627 dbbb fe8f a2bc
00000010: d561 2ebc d177 663c d3de a3bc 1050 3abd
00000020: c8a0 e6bc a2ee d7ba 9599 65bd a838 f5bc
00000030: 0e2f 20bd 3543 acbc ae5e 11bd c770 ddbb
00000040: 39ea 48bd 87e2 bbbb 6b92 8abb 77da 5cbd
00000050: 1f0f b03b b493 55bd a9c3 e33b 51bd 4d3c
00000060: 0803 42bb d3dc cdbc db98 37bd a2b2 1fbc
00000070: b86e 983b 567f 2ebd 08c5 6fbc ec88 25bd
00000080: 01f4 dbbc 3556 4b3c 3d86 563b d62a 473c
00000090: 5eae 97bc 9924 71bc 056f c2bc 8836 e23b
000000a0: 7355 49bd c3eb 063c 1cf3 17bb 215e a6bc
000000b0: fa42 f9bc 4127 c5bc 3cd1 bbbc 8fcb 75bd
000000c0: b0f9 13bc 4c79 a8bc 37a5 513c eff3 7ebc
000000d0: 151f 03bd b7f8 37bd bdae 8bbc e741 33bd
000000e0: 69d0 33bd 6aee 34bd a617 08bd 8564 f539
000000f0: 92bf b53b 43cf a3bc 78d6 343c 2e30 52bd
00000100: 0f27 38bd d0df c03b 5135 b53b 3a2e 18b9
00000110: f5fd 5ebd 4c1a f4bc fc0b 88bc e78e 64bd
00000120: 80bb a23c a397 673a ab89 efbc f353 73bc
00000130: 3619 20bd f81c 64ba 3e82 9dba 4e4b e83b
00000140: 253d 14bd 17ce 373c a28e acbc 6054 a9bc
00000150: aab1 563c d2eb 4d3c fdc7 c9bc b9a1 723b
00000160: 5d10 093b 67c3 ffbc 8ee6 25bd 22ef 14bd
00000170: 80d1 63bd fd50 e7bc 5db4 28bd 1956 32bd
00000180: 68b8 a7bc c8b5 e8bb 5138 96bd ba66 0b3b
00000190: 39de 2ebd 7044 58bc aff1 0cbc e592 7fbc
000001a0: 2c03 923c 1c9c 0fbd c22e 1bbd b1e0 8abd
000001b0: 01de 56bb d225 45bc 5f42 08bd da45 30bd
000001c0: 1390 51bd 3154 17bd b1d3 01bd 458b bdbc
000001d0: f9fd 59bc a8df 07bd 90b7 0ebd 0ca1 23bc
000001e0: 4e8b 09bb cd9a 48bd d407 963c 328c 043d
000001f0: dd85 2b3d e98b 4b3d d22c fb3c 1d01 813d
00000200: 2b83 c93c 96a2 2f3c e6f2 b33c 968f 2abd
00000210: 0dba c23c fd59 b03b c684 d43c cb57 253c
00000220: e463 afbc b3d3 74bb 037a 11bd 0b52 6cbd
00000230: b158 3dbd e78a 60bd 362b cdbc 82b5 633b
00000240: 45fb aebc 8949 ccbc a2f5 abbc 5aa7 4abd
00000250: d93f 93bd 7feb 3ebd 34be 8d3b 6527 a73d
00000260: 6fb0 8f3d db6c 813c 6c71 69bc 1a7a b8bb
00000270: 3b9d 1d3d ae16 583d b31d f0bc 4a46 99bc
00000280: 2237 ab3c 7a4a 133d b3ab d8bc 4aab d13c
00000290: af57 28bd ea8a 0abd 3a10 43bd e1f0 2fbd
000002a0: 3e0d acbb 2388 91bc d2fe 103b 2d91 c2bc
000002b0: a6a2 48bd f369 8bbd 88c2 5ebd bfa8 fabc
000002c0: 3323 4bbd 3c5f 7abc e42f 1d3c 36a7 8b3d
000002d0: ac48 703d 33d5 db3c 43f1 993d 0ba4 793d
000002e0: 23a2 383c 9110 523d 0ebf 803d 485c adba
000002f0: 2804 813c ed82 89bd af52 993a 9cc9 a23c
00000300: ff2f 183d 7320 0d3d 0b9b 44bd 3312 623c
00000310: cde5 2a3c aadc 65bc 2c85 04bd 9480 78bd
00000320: 6882 78bb af6c 0abd 05bd 50bd 6176 17bd
00000330: 6513 653d 478f 0a3d 36af 153d 123e fc3c
00000340: c1f6 bd3d 2282 ab3c 9758 963d 1857 9f3d
00000350: 203b b73d fbe9 c73c b489 cdbc a318 83bd
00000360: 2cae f5b9 8957 c4bb 2ffd eb3c 41c8 fa3c
00000370: a9e7 ae3b e9f6 21bd f065 a8bc af32 46bd
00000380: ff43 0dbd 91d8 e3bc b8fe 47bc f3b1 06bc
00000390: 696e f9bc e08f 64bd 50a6 b43c 7f49 103d
000003a0: 4431 323c d841 863b 1f05 3d3d 9558 8d3d
000003b0: 2a38 1c3d e1ed ad3d fcb1 afbc 067f c33c
000003c0: 4fab a2bb 625b 143d 4781 6fbb 75a6 18bd
000003d0: a112 bdbd 00d7 ca3a 6fbc 60bb 4061 113d
000003e0: 1ee3 a63d 8312 4c3d 7914 6d3b 4120 e4bb
000003f0: ca70 b03b b7a7 e4bb 96fb 4dbd a525 e2bb
-0.056485604 -0.031641115 -0.006688039 -0.019844051 -0.010643442 0.014066652 -0.020003712 -0.04548651
-0.028152838 -0.0016474316 -0.05605467 -0.029934242 -0.039107375 -0.02102814 -0.035490684 -0.006757829
-0.049051497 -0.0057337913 -0.00422888 -0.05391928 0.0053728963 -0.052142814 0.0069508147 0.012557344
-0.0029603858 -0.025129711 -0.04482351 -0.009747179 0.0046518706 -0.042601906 -0.014634378 -0.040413782
-0.026849749 0.01241069 0.003273382 0.012156209 -0.018515762 -0.014718198 -0.023734579 0.0069034733
-0.049153756 0.008234921 -0.0023185676 -0.020308556 -0.030427445 -0.02406657 -0.02292692 -0.06000858
-0.009031698 -0.020565651 0.012795738 -0.015561088 -0.032012064 -0.044914927 -0.017051095 -0.04376402
-0.043899927 -0.044172682 -0.033225678 0.00046804934 0.0055465186 -0.019996291 0.011037461 -0.05131548
-0.044959124 0.0058860555 0.0055300375 -0.0001451307 -0.05444141 -0.029797696 -0.016607277 -0.055800345
0.019864798 0.00088345463 -0.02924045 -0.014851558 -0.039086543 -0.00087018264 -0.0012016965 0.007089055
-0.036191124 0.011218569 -0.021064106 -0.020670116 0.013103882 0.012568431 -0.024631495 0.0037022664
0.0020914294 -0.031221105 -0.040503077 -0.036360867 -0.055619717 -0.02823686 -0.041187633 -0.04353914
-0.020473674 -0.007101748 -0.0733496 0.0021270947 -0.042692397 -0.0131999105 -0.008602544 -0.015598987
0.017823778 -0.035060987 -0.03788639 -0.06781138 -0.0032786133 -0.012032943 -0.03326642 -0.043035366
-0.05116279 -0.036945526 -0.031696025 -0.023137698 -0.013305181 -0.03317228 -0.034843028 -0.009987127
-0.0020987573 -0.048975755 0.01831428 0.032360263 0.04187571 0.049693976 0.03066102 0.062990405
0.024598679 0.010719916 0.021966409 -0.04164084 0.023770357 0.005381821 0.025942218 0.010091732
-0.021409936 -0.0037357628 -0.03551675 -0.05769543 -0.04622716 -0.054819968 -0.025045019 0.0034745638
-0.021360049 -0.024937408 -0.02099115 -0.049476005 -0.07189912 -0.046611305 0.0043256525 0.08161811
0.07016074 0.015798977 -0.014248233 -0.00562979 0.038480025 0.052756004 -0.029311037 -0.018710274
0.020900313 0.0359597 -0.02644906 0.025594372 -0.041099247 -0.033823885 -0.047622897 -0.04295433
-0.005250602 -0.01776511 0.002212454 -0.023750866 -0.04898324 -0.068073176 -0.05438474 -0.030598043
-0.049594115 -0.015281495 0.009593938 0.06819002 0.058663055 0.02683506 0.0751672 0.06094746
0.011269125 0.05128533 0.06286441 -0.0013226354 0.015749052 -0.06714425 0.0011697615 0.019871525
0.037155148 0.034454774 -0.047999423 0.013798284 0.010430765 -0.014029661 -0.032353565 -0.060669497
-0.0037919525 -0.033795055 -0.050961513 -0.03697813 0.0559267 0.033828046 0.036544047 0.030791316
0.0927558 0.020936076 0.07341116 0.07780284 0.08946824 0.024403563 -0.025090076 -0.064011835
-0.0004685981 -0.0059918803 0.02880725 0.030613067 0.0053376746 -0.039542112 -0.02055642 -0.04838818
-0.034488674 -0.027813228 -0.012206726 -0.008221137 -0.030448155 -0.055801272 0.02205196 0.03522634
0.010876004 0.0040972047 0.046147462 0.06901661 0.0381395 0.084926374 -0.021447174 0.02386428
-0.004964269 0.036219962 -0.003654556 -0.03726812 -0.09232069 0.0015475452 -0.0034292003 0.035493135
0.08148788 0.04982234 0.0036175533 -0.006961853 0.0053845393 -0.006978001 -0.05028876 -0.0069014602

fc1.bias f4 [100]
00000000: ec14 7d3d 89ac 1a3d 204f 05bd 28ae 11bd
00000010: 1cd7 383d 3e78 2cbc 83cf 3438 d9d5 623d
00000020: 6b6a ca3b 795b 2d3d baea 5abc d63a 3a3c
00000030: 0fcf 803a c889 613c dd36 393d 4b28 1b3c
00000040: 7714 7dbc 5dc6 d93c cfdf f33c 77cc 233d
00000050: 2a66 a33d 8187 413d 8b24 8a3c 648b 573d
00000060: 543a 963c 5a0c 533d ffc0 e2bb 7532 b8bb
00000070: 0167 253c 966f e13c e08e d3bc 5c69 8e3c
00000080: 9109 9838 c21a 003d 979f f0bc 5109 e2bc
00000090: 8a34 2b3d d380 7c3b 5ad4 b13b 9bf4 9ebc
000000a0: 1650 133c e661 e33a 5096 3a3c 700d 34bd
000000b0: 3646 323b e513 b2bb ac6d f3bc 0747 de3c
000000c0: 3e4a 0fbd b337 8ebc 2f65 703a c215 c6bc
000000d0: 1d32 debb a4aa 803d 44f1 a4bb 4e1f 9abc
000000e0: 034a 493b e266 cabb 613f 00bc 5cb4 89bd
000000f0: fd1d 42bb 237d e8bb 63c0 45bd df60 ccbc
00000100: 7d74 413d 4231 f73c 9973 2c3d 7f4d 47bc
00000110: 4863 ba3a a109 d23c b0f8 91bb c780 243c
00000120: 0b50 d4bc e680 403c 709a edbc 3502 883b
00000130: 2712 90bb bec4 443d b3eb 003d 36f1 c53c
00000140: b937 21bd e420 623d db45 c5bc abfd a23c
00000150: 2e1d fabc 1e98 1cbc 7a8c 18bc f05e 4bbd
00000160: 6091 193c c06a e93b 2262 0cbd 2016 2fbb
00000170: a4c2 7f3b 576e 603d 9cb8 55bb f05e ea3c
00000180: dc3a 07bd 90b5 4f3d cdb5 4ebd 9f21 b2bb
0.06178753 0.0377622 -0.032546163 -0.03556648 0.04512702 -0.010526715 4.3108605e-05 0.055379722
0.006177237 0.042323563 -0.013361627 0.011366567 0.0009827333 0.01376576 0.045218337 0.009470056
-0.015446774 0.026583845 0.029769806 0.039989915 0.079784706 0.047248367 0.016863128 0.052623168
0.01833836 0.05152545 -0.0069199796 -0.0056212493 0.010095359 0.027519029 -0.025824964 0.017384224
7.249707e-05 0.03127552 -0.029372973 -0.027592333 0.041798152 0.0038528934 0.0054269256 -0.019403746
0.008991262 0.0017347902 0.011388376 -0.043958127 0.0027202494 -0.0054345005 -0.029715382 0.027133478
-0.034982912 -0.017360544 0.0009170351 -0.024180297 -0.0067808763 0.06282547 -0.005033644 -0.018813755
0.003071428 -0.0061768154 -0.007827611 -0.06723854 -0.0029619925 -0.0070949956 -0.048279177 -0.024948535
0.047230233 0.030174855 0.04210243 -0.012164473 0.0014220262 0.025639357 -0.0044546947 0.010040469
-0.025917074 0.011749482 -0.029004306 0.0041506537 -0.004396695 0.04803919 0.03147478 0.02416287
-0.039359782 0.05520715 -0.024081161 0.019896349 -0.030531492 -0.009557752 -0.009310836 -0.049651086
0.009373039 0.0071233213 -0.034273274 -0.0026716068 0.0039025927 0.05479273 -0.0032611256 0.028609723
-0.033015117 0.05071026 -0.050466347 -0.005436137

fc2.weight f4 [10, 100]
00000000: ad11 04bf 8e74 61be e629 243e 908f 053d
00000010: 11e6 30be d970 c03e dda5 0c3f 3125 99bd
00000020: 6946 7b3d 0ae5 093e ad26 f03c 252e 8c3d
00000030: d84b b03e f1d9 a43d 1e2c c8be 622f 50be
00000040: 1ef5 963e 8738 fa3d 3f70 6d3d d996 3abc
00000050: d619 1cbf 5cfa 693e 36ca 13bf dc28 dcbd
00000060: 0625 fdbe f06f 413e ea86 aa3e a6f2 9d3e
00000070: fb23 973e 8d68 903e 6f6f 4ebd 69aa 05bd
00000080: 6cc4 fdbd 5157 433c 7dbf d73d 81c9 eb3e
00000090: 1ec4 cb3d 148e 03be 6ada a3bd 2827 e8bd
000000a0: 115c c93e fc46 b8bd 4f48 69bd 0b04 fd3c
000000b0: eede 0bbf 8cab a33e ef8b bd3a 8c8d b7be
000000c0: 45a5 c73d 0802 c23e 0e10 c9bd 3d62 c13e
000000d0: 11f1 c43e eea8 6cbe 289b e2bb e632 993d
000000e0: 9580 adbe 3cad b2be 4fcf ddbd 5cd2 eabe
000000f0: 4505 f83b b40c c63e d631 863e 0d53 143f
00000100: c2d3 70be 8d7a 4dbe c71e 1e3f e729 8fbe
00000110: e8aa be3d 8cbb 463e 9b46 1e3f 2af8 eabd
00000120: a9f5 3cbd 7075 5dbf 6da8 78be c898 273f
00000130: a916 aa3e 4bdf 823d dbea 9ebe 43ab 16bf
00000140: 48be 363c 4a42 f6be b691 833e c401 113e
00000150: 8dea c43e f8e4 d53e 602f f2be 9d82 453e
00000160: 4a7f 20be 78ed 4c3d 8541 ecbc 3c29 43bf
00000170: 9925 39bf d9f6 f63e 3a7f 133f 9635 46bd
00000180: a21f 01be d68c e1be 0398 683d 39bb 57be
00000190: 536b 0b3e 3012 823e 2af8 3b3f c4db 073e
000001a0: e086 b23d e77c 903d 846a a0be b276 1c3d
000001b0: b0e7 fabe 8911 843d eded bfbd 6a03 833e
000001c0: 657c 2fbe dac6 92be 0304 90bd a81c 283f
000001d0: 37f7 323e b03c d5bd 1d6b 32bf ead5 b1bd
000001e0: d30c 61be 9d2d e1be 6c16 603e 2b30 48bd
000001f0: eb81 043d 6407 b7be a182 233d a689 bfbe
00000200: 531c 82be a6c2 413e 884d 633d a82f 953e
00000210: 34ab 423f 2539 ed3d 75e9 973e 40e4 ad3c
00000220: 4066 aa3c a8d8 c9be 3c49 58bd 5e7b 923e
00000230: 304e 213c 13ba 9dbd c88f 21be f627 8f3e
00000240: 0a11 433d b9ef a83d 7aa5 653f 3c38 7cbf
00000250: 8ef3 603e 4806 cdbd 59fa b7bd 7b36 d0be
00000260: 7392 a2be fd88 4dbd 9e6b 86bc bbd9 853b
00000270: dd7b fe3e 9cec 22be 184f 2dbd 980c 693c
00000280: e233 88be 0273 f63c 4126 d43e 0554 eabe
00000290: 9e3d 873e 9f17 e8bc f857 c23e 61ca 7dbb
000002a0: c9d6 f9be 8a30 37be bb5a 8cbd e74e 253f
000002b0: ed8f f83d c9cb 0f3f cd2f 8a3d 46b7 f83e
000002c0: 40c4 3f3f 9587 36bf f669 98be 1f1a 573e
000002d0: 0129 753f 0a80 90be a6a0 1c3e 1aad 99bd
000002e0: a8e8 bbbe 0348 aa3d 6314 40be a4b3 003f
000002f0: e3dc 47be 13d8 393e 6049 76bd 9287 b03e
00000300: e7ec 9abd 8162 cd3d 55d6 f9bd 3aac d7be
00000310: 9db1 ce3e b054 0b3e bdd3 5d3d cd9a 423f
00000320: c303 6a3c 16b9 45bf 7a53 a0bd b9f8 a83e
00000330: a989 973e bb0d 4dbe e5c5 243f 49ec d43d
00000340: 8adb 793b 7354 a63e 7eb7 fabd 8338 20bf
00000350: 7631 afbe 1846 62bf 6c6d 0bbf 0526 fbbe
00000360: b250 1b3f 329b 3ebf 36c4 7a3e f9c9 16be
00000370: 075a abbe 5e6c da3b 1d24 09be 95c0 9e3f
00000380: a3a9 7abf 9705 c3be 8897 abbe d438 93be
00000390: 2007 363f cd3a 86be 577b b2bd 4520 3f3f
000003a0: 55eb efbd 67bb 3d3e e697 9fbe e96b 50be
000003b0: 14ac a53e 495d 71be c110 3ebe d55e 0a3f
000003c0: 9851 28bf ac14 483e 6d63 b63e 7a68 cebe
000003d0: 964e ddbe a89d a7bd 92bb e7be 0615 863d
000003e0: 35b2 b43c 4172 8e3e e908 b4be 8465 823e
000003f0: 5928 003f fea8 e03e b303 643e 20c1 dbbe
-0.5158947 -0.22017118 0.16031608 0.032607615 -0.17275263 0.37586096 0.5494059 -0.07477797
0.061346445 0.13466278 0.029315317 0.06844739 0.34432864 0.080493815 -0.3909616 -0.20330575
0.29483885 0.12217813 0.057968374 -0.011388504 -0.6097692 0.22849411 -0.57730424 -0.10749981
-0.4944231 0.18890357 0.33306056 0.3084919 0.29519638 0.28204766 -0.05039924 -0.03263322
-0.1239098 0.011922673 0.1053457 0.46052173 0.09949516 -0.12847167 -0.080006436 -0.113355935
0.39328054 -0.08997914 -0.056953724 0.030885717 -0.5463704 0.31966817 0.0014461259 -0.3585018
0.097483195 0.37892175 -0.09817515 0.37770262 0.3846517 -0.23111317 -0.0069154687 0.07480411
-0.33887163 -0.34897792 -0.108305566 -0.45863616 0.0075689876 0.38681567 0.26209897 0.57939225
-0.23518279 -0.2006628 0.6176571 -0.27961656 0.093099415 0.19407481 0.61826485 -0.11473115
-0.046132717 -0.8650732 -0.24283 0.654675 0.33220413 0.06390246 -0.31038556 -0.58855075
0.011153765 -0.4809745 0.25697106 0.1416083 0.38460198 0.41776252 -0.4730177 0.19288106
-0.15673557 0.050031155 -0.028839836 -0.76234794 -0.72322994 0.48235205 0.5761601 -0.048390947
-0.12609723 -0.44052762 0.056785595 -0.21067514 0.1361516 0.254045 0.73425543 0.13267428
0.087171316 0.07055073 -0.31331265 0.038199134 -0.4900489 0.06448657 -0.093715526 0.25588542
-0.17137296 -0.28667337 -0.07032015 0.65668726 0.17477117 -0.10411966 -0.6969469 -0.08683379
-0.21977548 -0.43980113 0.21883553 -0.04887406 0.032350462 -0.35747826 0.0399195 -0.37409705
-0.25412235 0.18921909 0.05549386 0.2913792 0.76042485 0.11583165 0.296703 0.021227002
0.02080071 -0.39423108 -0.052804217 0.28609747 0.0098453015 -0.077015065 -0.15777504 0.27960175
0.04762367 0.082488485 0.8970562 -0.98523307 0.21967909 -0.10010964 -0.08983297 -0.40666565
-0.31752357 -0.05017947 -0.016408738 0.0040847934 0.49703875 -0.15910572 -0.042311758 0.014224194
-0.26602083 0.030084137 0.41435435 -0.45767227 0.26414198 -0.028331576 0.3795774 -0.0038725364
-0.4879668 -0.1788961 -0.06853243 0.6457352 0.12136827 0.56170326 0.067473985 0.48577327
0.7490883 -0.7130063 -0.29768342 0.21006058 0.9576569 -0.28222686 0.15295658 -0.0750372
-0.3670094 0.083145164 -0.18757777 0.5027411 -0.19517855 0.18148832 -0.06012857 0.34478432
-0.07564717 0.10028554 -0.12199084 -0.42123586 0.40369883 0.13606524 0.054157007 0.7601746
0.014283123 -0.77235544 -0.07828422 0.3300226 0.29597214 -0.20024769 0.64364463 0.1039663
0.003812524 0.32486305 -0.122420296 -0.6258623 -0.34217423 -0.88388205 -0.5446384 -0.49052444
0.60670006 -0.7445556 0.24488911 -0.14725484 -0.33467123 0.0066657504 -0.13392682 1.2402521
-0.97915095 -0.38090202 -0.33514047 -0.28754294 0.7110462 -0.26216736 -0.087149315 0.74658614
-0.11714808 0.1852852 -0.31170577 -0.20353664 0.32357848 -0.23570742 -0.18561079 0.5405095
-0.657495 0.19539136 0.3562273 -0.40314084 -0.4322402 -0.081843674 -0.45260292 0.06546979
0.022057632 0.27821544 -0.35163048 0.25468075 0.50061566 0.4387893 0.22267036 -0.4292078

fc2.bias f4 [10]
00000000: a7e3 14be e36f 3bbd 767d bb3d 258e c3bd
00000010: f088 9ebd 68b0 e93d 3dac b8bd aa3e e4bc
00000020: 6b33 923d 9537 353d
-0.14539967 -0.045761 0.09154789 -0.09548596 -0.077409625 0.114106 -0.09017227 -0.027861912
0.071387134 0.04424246
